models/best_state_dict.pth (torch, 391046 bytes, 20 tensors)

conv1.weight f4 [32, 3, 3, 3]
00000000: 550a abbd 9649 bd3c e147 7abd 7a81 24be
00000010: bfda 20bd d0c8 453e 4116 b93d 1c2f 58bc
00000020: ee4f 413e 9e2f b0bd 2c40 19be edf1 3abd
00000030: 9da4 8abd fdc2 b7bc c4ca 08bc a566 e7bd
00000040: 2e3c bf3d b0fd 0cbe c3b9 db3d e7c3 54be
00000050: 6add dbbd c1ed 5a3d b40f c43d c622 373e
00000060: e6a2 8fbc 97b6 b93d 8e8e 2f3e 41f3 3cbd
00000070: 3aba 33be 8f2e 9fbd 8dce 163e bea5 cb3c
00000080: 8333 5c3d 60aa 17bd 0ef3 553c eba0 9dbd
00000090: 8224 b83d 127d 10be b436 67bc 646d 36bd
000000a0: 7e63 2f3e 1fec 913d 2895 f1bd d426 803d
000000b0: d447 9d3d 52f4 ee3d 9be9 26be 86b5 033e
000000c0: aada c03d 16f9 5f3c 1c11 72bd eefc 3d3e
000000d0: e8c3 1fbe aeb1 13be a4ff 3a3e deed 1f3e
000000e0: f88f 24be ac84 6a3d 0d24 fb3d 55cd 5c3d
000000f0: e272 e33c bee2 2dbb 07d0 99bc 9d30 9e3c
00000100: 7332 dc3c ae56 1e3e cb65 233e 3af9 1e3a
00000110: 1582 4dbd d3b3 543d 1057 76bd 7a63 19be
00000120: 0089 f7bc 01a8 19bd 9ddf 16be b6dc 21be
00000130: c757 8b3c ab8c 00bd 8f76 47bd 542d b1bd
00000140: b9c6 7abd ecb5 043e 5b0b 953d e81c fd3d
00000150: 3132 06bd 6100 84b8 60a4 483b a5af 1c3e
00000160: 98d6 2bbe 57a1 cd3d 326f a5bd 583a fa3b
00000170: 6f57 093e 573d 29bd 3385 053e 2c07 863c
00000180: e583 34be 272f 2bbe 27fd 1abe 29a5 1e3e
00000190: fdb9 013e 9e7b c33d ddc2 a1bb eb37 a23d
000001a0: 9d0b cfbd 598e f8bd 4a29 2abe bc98 e7bd
000001b0: 4dc4 c53d 32e7 e03d 7375 b03d 94ad debc
000001c0: 96c4 a3bd ff62 c7bd 4382 3cbd 9e57 1fbe
000001d0: 86c7 7ebd ab88 a53d 52e5 4c3d b6c5 dabc
000001e0: 3be4 09bd 53c1 b73d 5706 34bd 932a 71bd
000001f0: 7abb 5bbe 4dd6 7fbd 3eb2 063e 332b ec3d
00000200: e5a1 a7bd d479 6b3e dc94 cdbc c306 3fbd
00000210: d32c 023d 31a7 0d3d 3ab6 04ba 36c7 d9bd
00000220: 18cf e33d 7831 c03d d57e bfbd efd2 77bd
00000230: 405a 1b3d 872a 92bd d0f7 003e d29f 0f3c
00000240: 4ffd 2d3e 9815 5abe 3604 6dbe ce04 d13d
00000250: 41cb 46bd a127 643c 3149 17be c62f 1e3e
00000260: fb29 243e 3607 933d c373 6abe acbb 3cbe
00000270: a103 1cbe 5a22 0b3e 3303 d2bc 801d 563e
00000280: e42e 87bd 74f2 643e 96de 1ebd 25d2 d7bd
00000290: a891 33be fcdc 96bd 2b05 07bc 8bd7 ad3d
000002a0: e46b 063e 8e16 aebc 42ef c83d 560a 49bd
000002b0: cac1 eabd f01c a7bd 6c1d 013e e476 d23d
000002c0: 5143 603d 5b85 afbd 3f21 303e 0e25 32bd
000002d0: c385 70be 5896 923d 7256 3bbe e0e2 b83d
000002e0: f107 973c da63 b3bc f82d ac3d f67f 8c3d
000002f0: 8d46 123e 603e 28be 4b48 943c d76a a53d
00000300: a892 d73b b782 093e dc41 33be af66 bbbd
00000310: 361a 143e 5258 103e 2e0f febc d811 92bd
00000320: 6a56 123e 15a3 e1bd 783e 3d3c fbf0 d03c
00000330: 7a2e 59be f578 e5bd 3378 a23d 0ee4 9a3d
00000340: 24a9 223e 8ee3 213e 7241 383a 74ff bcbd
00000350: 5fda 40bd a641 1abd 7cad afbd a7f8 5a3d
00000360: 064d fcbd 352f 21bb a8ea dc3d 277c bbbc
00000370: 2a65 d53b 69c2 2a3e 627b 493e eea1 37bd
00000380: 02db 32be bb37 19be f483 da3d 10c6 163d
00000390: 3e41 273e 1b34 1abd 1a51 3cbe afec 2d3e
000003a0: 6674 123e 86be cbbd 6560 0c3b f38c 1f3e
000003b0: 3a9f d53c e142 d0bd 0444 cc3b 2497 713c
000003c0: 015d 30bd 6365 ffbd a641 37be 573c 413e
000003d0: 3272 b0bd 6e18 cb3c d692 253d b959 1a3e
000003e0: 7e69 21be dcc9 b93c 757b fcbd 3f1c a93d
000003f0: 4692 973d 8fc9 b6bb 5b1d 34be 187e e0bb
-0.0835158 0.023106378 -0.061103705 -0.16065016 -0.039271113 0.19314885 0.09037448 -0.0131948255
0.18878147 -0.08602832 -0.14965886 -0.045640875 -0.06769679 -0.022431845 -0.008349124 -0.11298875
0.0933765 -0.13768649 0.107287906 -0.20777856 -0.10735591 0.053449396 0.09573308 0.17884359
-0.01753373 0.090680294 0.17144224 -0.046130423 -0.17551509 -0.07772552 0.1472723 0.024859305
0.053760063 -0.037027717 0.013058437 -0.07696708 0.08991338 -0.1411021 -0.014112163 -0.044537917
0.17127797 0.07125115 -0.117960274 0.06257406 0.07679716 0.11667694 -0.16300051 0.12862214
0.09416707 0.013670227 -0.059098348 0.18553516 -0.15602076 -0.14423248 0.18261582 0.15618083
-0.16070545 0.057255432 0.122627355 0.053906757 0.027764741 -0.0026532854 -0.018775953 0.01931029
0.026879525 0.15462753 0.159568 0.00060643593 -0.050172884 0.051929306 -0.060141623 -0.14979354
-0.030216694 -0.037513737 -0.14733739 -0.15806851 0.017009629 -0.03138415 -0.04869705 -0.08651224
-0.061224673 0.12960023 0.072775565 0.12359029 -0.03276271 -6.294321e-05 0.0030615553 0.15301378
-0.1678108 0.10040539 -0.080778494 0.0076363496 0.1341226 -0.041318264 0.13039093 0.016360842
-0.17628439 -0.16717206 -0.15135632 0.15492691 0.12668605 0.095450625 -0.0049365596 0.07920822
-0.10109637 -0.12136526 -0.16617313 -0.11308429 0.09656582 0.10981597 0.08616152 -0.027182378
-0.0799648 -0.09735679 -0.046022665 -0.15560767 -0.062202 0.08082708 0.050023384 -0.026705604
-0.033664923 0.089724205 -0.04395136 -0.058878493 -0.21458235 -0.062460233 0.13153931 0.11531677
-0.08185176 0.22995692 -0.025095396 -0.046637308 0.03178103 0.034583274 -0.0005062554 -0.106336996
0.111234844 0.093844354 -0.09350363 -0.060503896 0.037927866 -0.07137018 0.12594533 0.0087661315
0.16991161 -0.212973 -0.23146138 0.102059945 -0.04853368 0.013925464 -0.14774014 0.15447912
0.1603164 0.0717911 -0.22895722 -0.18430966 -0.1523576 0.13587323 -0.025636291 0.20909691
-0.066007406 0.22358114 -0.038786493 -0.10538129 -0.17536032 -0.07366368 -0.008240978 0.08488377
0.13127095 -0.02125099 0.0981126 -0.049082123 -0.114627436 -0.08159816 0.1260888 0.10276583
0.054751698 -0.085703574 0.17200182 -0.04349237 -0.23488526 0.07157582 -0.18294695 0.09027648
0.018436404 -0.021898199 0.08407205 0.06860344 0.14284725 -0.16430044 0.018100878 0.08077019
0.006578762 0.1342877 -0.17505592 -0.09150445 0.14463124 0.14096192 -0.031013098 -0.0713231
0.14290777 -0.110174336 0.011550538 0.025505533 -0.21209136 -0.11204711 0.079330824 0.07563029
0.15884835 0.15809461 0.0007028795 -0.09228411 -0.047083255 -0.037660263 -0.085780114 0.05345979
-0.123193786 -0.0024594788 0.10786945 -0.022886349 0.006512304 0.16675724 0.19675973 -0.044832163
-0.17466357 -0.14962666 0.10669699 0.03680998 0.16333482 -0.037647348 -0.18390313 0.16984819
0.14302215 -0.09948449 0.002141976 0.15581112 0.026076902 -0.10169006 0.006233694 0.014745507
-0.043057445 -0.1247051 -0.17896137 0.18870674 -0.08615531 0.024791922 0.040423237 0.15073289
-0.15762898 0.022679262 -0.12328235 0.08257341 0.07400946 -0.005578227 -0.17589323 -0.006850969

conv1.bias f4 [32]
00000000: 6d27 263d 1c03 e6bd 4413 a13d cd0f 973c
00000010: 8f76 78bd d25b 6dbc b0d0 733d 8556 81bc
00000020: 7d27 ad3d 18d7 de3d 8fa7 01be d0cb 273e
00000030: 0dfa 39be d125 cc3c e888 adbd abd5 acbd
00000040: bd6b 393d ff5f 0bbe 2f89 81bd c86c d13d
00000050: 9a5c cb3d 088d 95bc a741 e8bd 569d 8ebd
00000060: 9c9d 1c3d 701c f5bc 6eeb 103e 2824 f2bc
00000070: 1724 083e 978a 27be 2564 eb3d 794a c43c
0.040564943 -0.11231062 0.07865003 0.018440152 -0.06065994 -0.014487224 0.05952519 -0.015788326
0.084547974 0.108808696 -0.12661575 0.16386342 -0.18161793 0.024920376 -0.084733784 -0.084391914
0.045268763 -0.13610838 -0.06324994 0.102258265 0.09929772 -0.018255726 -0.11340647 -0.06963603
0.038236246 -0.029920787 0.1415231 -0.029558256 0.13295017 -0.16361462 0.114937104 0.023961293

bn1.weight f4 [32]
00000000: b53d 933f 0a37 683f 7586 783f 982d 903f
00000010: f5e5 7f3f 4d5e 5f3f 4bba 873f 8a09 713f
00000020: 8042 843f 29b4 923f 4c0f 683f d489 6c3f
00000030: 1cee 6e3f 9388 773f 8969 743f 94bf 553f
00000040: 76f1 8f3f 48fc 793f 76f0 723f 7c84 5a3f
00000050: 21af 543f 35b8 883f 6656 933f 212d 8e3f
00000060: 7dc8 603f f79a 443f db82 893f b0aa 6a3f
00000070: 82ad 743f 8754 713f f9ab 783f a73f 883f
1.1503206 0.9070898 0.97080165 1.1263914 0.9996026 0.87253267 1.0603727 0.9415518
1.0332794 1.146123 0.9064834 0.9239781 0.93332076 0.9669277 0.95473534 0.8349545
1.1245563 0.97650576 0.94898164 0.85358405 0.83079726 1.0681216 1.1510742 1.1107522
0.8780592 0.7679896 1.0743059 0.916667 0.9557725 0.94269603 0.9713741 1.0644425

bn1.bias f4 [32]
00000000: d3c7 bebd 0a91 93bd 0925 a5bd a048 d6bd
00000010: 54be a5bd b4d5 f2bd 4b42 08be 42a6 f53d
00000020: b49c 88bd 8f12 27be 0d51 c3bd 7aad cebd
00000030: d98b adbd b4e6 dabd 8d6e 23be 9d59 1bbe
00000040: fe8d 82bd a0ec 76bc ea63 96bd 1a5e b1bd
00000050: 274a 3dbe 0425 43bd 8118 eebd e5a6 05be
00000060: dd51 d7bd 20f9 70be 329e efbd c4db 86be
00000070: d87b e7bd 53a0 cabd e200 fbbd 5c85 d6bd
-0.09315457 -0.072053984 -0.080637045 -0.10463071 -0.08092943 -0.11857167 -0.13306539 0.11994602
-0.06670514 -0.16315673 -0.095369436 -0.10091682 -0.084739394 -0.106885344 -0.1596014 -0.15170904
-0.06374739 -0.015071064 -0.07343276 -0.086605266 -0.18485318 -0.047642723 -0.116257675 -0.13051946
-0.10513661 -0.23532534 -0.11700095 -0.26339543 -0.11302918 -0.09893861 -0.12256028 -0.10474655

bn1.running_mean f4 [32]
00000000: 815f 3f3d 96ac a6bd 7013 16be 89af a4bd
00000010: 0626 763d 58b9 87bd f81a e93d 8faa 82b9
00000020: 349d a73c 84cb ba3d 44a2 46be 341c 183e
00000030: 7c1b 14be 7f84 60bb b275 25bd a0e5 58be
00000040: 00ed 86bb 00f5 63be b3f1 3fbe 2a6c 57bc
00000050: c0ba 4dbd 8844 0fbd 234d 27be 3d67 04be
00000060: c840 46bd 81a5 3f3c fc3a f53d aae2 983e
00000070: da2e 293e d426 d0bd a2a4 f23d 8d70 c43c
0.04672194 -0.08138387 -0.14655852 -0.08041293 0.060094856 -0.066271484 0.11382097 -0.00024922608
0.020460702 0.09120849 -0.19397837 0.14854509 -0.1446361 -0.0034258661 -0.040395446 -0.21181345
-0.004117608 -0.22261429 -0.18744545 -0.013148347 -0.050226927 -0.034977466 -0.16338019 -0.12930007
-0.048401624 0.011697174 0.11974141 0.2986043 0.16521779 -0.10163656 0.118478075 0.02397945

bn1.running_var f4 [32]
00000000: a337 1f3e a42f 883d 3532 a63d a055 883e
00000010: 47d6 3d3e 0481 1b3e 9c65 703e ac9a 123e
00000020: 957d 6c3d caf8 1a3e acf8 df3d 2855 013e
00000030: f980 843d a956 f03d 5001 b33d dc5e 8f3e
00000040: 3520 473d bea5 ea3d fa31 433d 1f72 d03d
00000050: c1fa 883d 8ab1 7b3e 2fd7 c33e 28ff b23e
00000060: 32a6 763d c58f 573e ba2b 1e3e cb28 fd3d
00000070: d5f4 163c b4a8 013e bf98 4f3e 0700 0b3e
0.15548567 0.06649712 0.08115045 0.26627827 0.18538772 0.15185934 0.23476261 0.14316815
0.05773695 0.15133968 0.10936102 0.12630141 0.06469912 0.11735279 0.08740485 0.2800206
0.0486147 0.11457394 0.047655083 0.10178017 0.066884525 0.24579445 0.3825011 0.34960294
0.06021709 0.21050937 0.15446368 0.12361296 0.009213646 0.12662011 0.20273112 0.13574229

conv2.weight f4 [64, 32, 3, 3]
00000000: 16e4 f4bb 7bec 613c 66d2 3c3d e155 a9bc
00000010: ec8e 263d ba4f 9d3c 9b23 fe3c bb4b 65bd
00000020: f5d5 bebc 4baf 05bd 2d84 6bbc 3a37 4e3c
00000030: a49f e2bc f40c cd3c 115b db3a d330 5cbd
00000040: 6ece 823b c24a 0cbc 43a5 0dba c9ee 63bd
00000050: c22c 723d 2233 e3bd a886 1cba d248 31bc
00000060: c338 d7bc 3e87 183c ffc5 7d3d c07b 973d
00000070: 3254 a43d f396 a83c 72b4 44bc c24a bdbd
00000080: 113f 1abb 09c3 8f3c 6ec6 b03d 395d 283d
00000090: 9fc1 2abd 505c b3bb 6f17 bf3c 76b2 2bbd
000000a0: 6502 a1bd 0231 333d e85c 7d3d 24ee 7a3d
000000b0: dbbf 723d 50ac 493d f72a 253a 0a5d 14bd
000000c0: 613f 4f3b 7523 993d ec1e f43b 0a6b 663b
000000d0: 93ef 3cbd 9fea 5fbd 6304 39bd eeb6 9fbd
000000e0: fe14 45bd d990 823d 2cc2 a1bc 24e0 45bd
000000f0: 43e3 b23c a2a6 21bd 1ad3 843b 9581 02bd
00000100: 2c77 46bc f8a9 9fbc 9560 9abd 7d16 acbd
00000110: 9a7b a3bc a572 2cbd 1a41 46bd 2c9c 58bd
00000120: d1cc 9f3d eb2d 1c3d 2828 0c3d 2e8d e7bd
00000130: eb9d 5c3c 976e e23c ec0d 3d3d d3e2 95bc
00000140: 4cac a43c c10f fe3a 98a0 25bd 8a75 25bc
00000150: 855d 3ebc 9c11 39bd 2387 013d cd93 efbd
00000160: d12f 29bd dda3 0abd 7425 633a a785 3b3d
00000170: d3d4 793d 78ea e33c f092 483c beae 97bb
00000180: 2e7b fabc 161b 79bd 62bb d03c 440b 453d
00000190: d4f3 60bd 3d02 b5bc 8974 c9bc b5c9 53bd
000001a0: 4588 aebb 44d5 413d 30f0 d0bb 98be f43b
000001b0: aa61 693d 58b6 d8bc a3eb 173b 5c3d 0abc
000001c0: 8201 b3bd 3e72 08bd 7424 5ebd 885e e6bc
000001d0: 79c5 06bd 2f8c 3bbd 948e bdbd 61b1 12bd
000001e0: d4d6 26bd 74f8 12bd c9a6 a43b 9500 a3bd
000001f0: 1b3e aebc 6863 513d 3423 8dbc 493e 89ba
00000200: 7c45 2d3a 99fe 99bd 96bf 41bb 5f17 cdbc
00000210: 7641 b0bd 7476 84bd 6ef5 16bd b501 bbbc
00000220: 0d95 88bb 2021 383c 6e91 113d 1c7b 123d
00000230: ccc9 063d 79d2 c43c 30f1 2a3c 603c 17bd
00000240: 615d 4bbb 4749 e63a 8a69 4d3b 7dad bdbd
00000250: 148e 63bd af9d 01be a281 833d a256 cabc
00000260: 87ba 1c3b 5acc 28bd 3ab3 3dbd fc92 e53b
00000270: 9af9 2bbd d3cb 7abd df5a 5b3c a4ef 573d
00000280: 74b7 953d b362 993d f248 523c 2e1c c53c
00000290: 88ef a73a f6e8 72bd a3ad 48bd 9dbf c43b
000002a0: a1b1 98bc 788c abbb 6695 1f3c dfbd 7a3d
000002b0: 34cd 413d dda8 59bd 463c 46bc dbee 4ebd
000002c0: 8f80 a6bd bc39 0dbd d030 84bc 4a3d f83c
000002d0: a329 f83b 11df 873c 85d3 dc3c 4c85 d1bc
000002e0: e3e4 693b 35b6 3e3d a2d0 d73c 72c8 edbc
000002f0: 4174 953c 2b57 9d3d 9768 ed3b f14c b7bc
00000300: 0ded 3dbd 9cad d7bd 5c97 e0bb 3534 e13c
00000310: c9db b6bd fd40 2fbd ae1a 2cbd 5c39 11bb
00000320: 76e0 683d f399 8f3d 4a6a 853b ec13 293d
00000330: 7a0f 24bd 9a3e 3fbc 4e2f 9c3c c587 683c
00000340: 34ff 5ebd b6e5 83bc ab56 43bd 35ea 00be
00000350: dc71 ae3c 3caf bcbd 7603 b6bd 8f73 e43b
00000360: e9bf 9f3c f33a 94bc 1b8f 61bd 4dcf 513d
00000370: 9128 82bd 495b f23a 01a3 02bc 9e44 573d
00000380: 04e8 c13c 463e e8bc 35e3 b03c ad0b 373d
00000390: 03a0 43bd a287 00bd fbd8 76bd 7188 013d
000003a0: 1ea0 3abd 4b3a 0ebd 842d 7bbc 8973 91bc
000003b0: 3692 e73c d94e b23d 6208 753d 535e c9bc
000003c0: 7a95 ec3b ad59 9fbd f5f8 4dbd 2fd6 01bd
000003d0: 1662 81bd 95cc 58bc 4032 86bd ce3c 00bd
000003e0: 9f25 a5bc f2ee 683d 828f 8abd 59ed 0d3d
000003f0: 9124 733d d1b4 97bc 27de 00bc 59b0 59bd
-0.007473479 0.0137892915 0.04609909 -0.020670833 0.040663645 0.019203056 0.031022837 -0.055980425
-0.023295382 -0.032637876 -0.014374775 0.012586409 -0.027664013 0.02503059 0.0016735514 -0.0537575
0.0039918935 -0.0085627455 -0.0005403349 -0.055647645 0.059124716 -0.11093737 -0.0005970993 -0.010820584
-0.026272183 0.009309588 0.061956402 0.0739665 0.080238715 0.02057979 -0.012005912 -0.092427745
-0.0023536126 0.017549055 0.086315975 0.04110453 -0.041688558 -0.005473651 0.023326604 -0.04191824
-0.07861785 0.04374791 0.06185618 0.061262265 0.059265 0.049236596 0.0006300653 -0.03622154
0.003162347 0.07477466 0.0074499752 0.0035159015 -0.046126913 -0.05466711 -0.0451702 -0.07798563
-0.048115723 0.06375284 -0.019745909 -0.04830946 0.021836882 -0.039465554 0.0040534856 -0.03186186
-0.012113374 -0.019490227 -0.07537953 -0.08402727 -0.019956399 -0.04210152 -0.04840193 -0.052883312
0.078027375 0.03812973 0.034217983 -0.11306225 0.013465385 0.027640624 0.046155855 -0.018296635
0.020101689 0.0019383357 -0.040436357 -0.010098824 -0.0116189765 -0.04518281 0.031623017 -0.11698113
-0.041305367 -0.03384768 0.0008664944 0.045781758 0.06099398 0.027821764 0.012242064 -0.004628985
-0.030576315 -0.060816847 0.025479976 0.048106447 -0.054920033 -0.022095794 -0.024591701 -0.051706035
-0.005326303 0.047322527 -0.006376289 0.0074690096 0.056977905 -0.026454136 0.0023181222 -0.008437481
-0.08740522 -0.033312075 -0.054233983 -0.028121248 -0.03290317 -0.045787986 -0.0925571 -0.035813693
-0.04073222 -0.035881475 0.005024765 -0.079590954 -0.021269849 0.05112019 -0.0172287 -0.0010470833
0.000660978 -0.07519264 -0.0029563657 -0.025035558 -0.08606236 -0.06467906 -0.036855154 -0.022827962
-0.004168159 0.011238366 0.035539083 0.035761937 0.032907292 0.024026142 0.01043348 -0.036922812
-0.0031031 0.0017569446 0.0031343424 -0.09261606 -0.055555418 -0.12657808 0.0642121 -0.024699513
0.002391489 -0.04121051 -0.046313502 0.0070060473 -0.041986085 -0.06122954 0.013388365 0.052718773
0.073103815 0.074895285 0.012834774 0.024061289 0.0012812475 -0.0593042 -0.048993718 0.0060042874
-0.018639388 -0.005235251 0.009740209 0.06121623 0.047314838 -0.053139556 -0.012099331 -0.05052076
-0.08129989 -0.034478888 -0.016136557 0.030302662 0.007573323 0.016585859 0.02695633 -0.025576256
0.0035689406 0.046560485 0.026344601 -0.029026244 0.01824391 0.076826416 0.007245134 -0.022375556
-0.046368647 -0.1053116 -0.006853981 0.027490715 -0.089286394 -0.042786587 -0.04201763 -0.0022159433
0.056854688 0.07011785 0.0040715085 0.041278765 -0.040053822 -0.01167264 0.019065525 0.014192526
-0.0544426 -0.016100746 -0.047690075 -0.12589343 0.021294527 -0.09213111 -0.08887379 0.0069717835
0.01950069 -0.018094515 -0.055068117 0.051223088 -0.06355394 0.001849034 -0.0079734335 0.052555673
0.023670204 -0.028350007 0.021592716 0.04468887 -0.04776002 -0.03137935 -0.060265522 0.03162426
-0.045562856 -0.03472356 -0.015330676 -0.017755287 0.028267961 0.08706445 0.059822448 -0.02458111
0.0072199674 -0.07780776 -0.050286252 -0.031698402 -0.063175365 -0.01323237 -0.06552553 -0.031307988
-0.02015954 0.0568685 -0.06765653 0.03465018 0.059361044 -0.018518837 -0.007865465 -0.053146694

conv2.bias f4 [64]
00000000: 9461 2d3c a6b5 cbbd 5d4a f2bc 6e79 96bd
00000010: bea0 af3b 8927 0d3d 7227 fbbc 328f f93c
00000020: 3350 45bd e46f 05be 6c3c 3a3d 1684 5bbd
00000030: a9f9 43bd db47 933d 6c1b 233c 8928 203d
00000040: c1b0 2d3b 8e6a 333d 68b3 b93d ca9d e6bc
00000050: 6830 473d 7852 1f3d 1001 b33d bd86 313c
00000060: 2816 1dbd 1972 b43d 2781 10be 12af 7ebd
00000070: fe1b 6c3d a791 0e3c 3caa a73d 2b60 5f3c
00000080: 51d4 c83d 75b2 abbc aa35 333d 6ad2 7f3d
00000090: 1963 52bd 219b 123d 9de0 1dbd 5f8d 13bd
000000a0: f38d af3b 5ff4 93bd a7c0 ccbc 2387 9abc
000000b0: 974c 993d b026 d7bd dbff b3bb 5a1d 9b3d
000000c0: 9f1f 2cbc cd3c b03d b3bd e0bb b2e1 1c3d
000000d0: 6c4d 94bd 7f26 8c3d e9b4 99bd cd27 0fbe
000000e0: 93c7 95bc d223 043d aa57 48bd 996e 6e3d
000000f0: a772 4abd 1707 8f3a 8a63 42bd e594 9a3d
0.0105823465 -0.09946756 -0.029576475 -0.073473796 0.005359738 0.03446153 -0.030658457 0.030463789
-0.048172187 -0.13030964 0.04546778 -0.053592764 -0.047845516 0.0719144 0.009955268 0.039101157
0.0026503059 0.04380279 0.09067422 -0.028151412 0.04863015 0.038897008 0.08740437 0.010835347
-0.038351208 0.08810825 -0.14111768 -0.06217868 0.057643883 0.008701718 0.081867665 0.013633768
0.09806121 -0.020959118 0.04375235 0.062456526 -0.05136404 0.035792474 -0.038544286 -0.036023494
0.005357498 -0.072243445 -0.024994208 -0.018863266 0.074853115 -0.10505426 -0.005493147 0.07573958
-0.010505586 0.08605347 -0.0068585514 0.038301177 -0.072413296 0.0684328 -0.07505209 -0.13980027
-0.018283641 0.032260723 -0.048911728 0.058210943 -0.049425747 0.0010912147 -0.04745821 0.07547931

bn2.weight f4 [64]
00000000: db9d 823f c341 813f e1a9 6f3f 0bc1 723f
00000010: 0d7a 893f 531c 883f dd8a 6a3f f116 803f
00000020: 60ad 8c3f fc7c 5e3f d469 7f3f 4d9f 843f
00000030: 1aff 883f ff46 793f 2c9b 873f 41e3 833f
00000040: 40bd 843f 963d 933f 51cf 7c3f edef 783f
00000050: 9716 703f faf3 743f 3317 673f 675a 753f
00000060: 1eb7 873f 7274 8b3f 35f3 693f 17cd 683f
00000070: 299d 893f e988 7b3f 3d89 8d3f 2e1c 7a3f
00000080: 3458 8d3f 69da 8a3f 19db 753f f57c 863f
00000090: 4a73 883f 6e04 763f a560 823f 8175 813f
000000a0: 719a 843f 041e 863f 1083 7c3f 0089 813f
000000b0: 15ad 7b3f 2ad8 793f 9b2f 883f 0118 693f
000000c0: 60c6 8a3f 527b 633f fc4a 4c3f 306e 873f
000000d0: 09cd 713f d3c6 8b3f 7249 793f f898 8c3f
000000e0: b87b 903f 2463 803f a748 863f a34a 693f
000000f0: 3264 813f b41e 873f 5f4f 7f3f 5549 873f
1.0204424 1.0098194 0.9361859 0.9482581 1.0740372 1.0633644 0.9161814 1.0007001
1.099041 0.8690946 0.99770856 1.0361115 1.0702851 0.97373956 1.059423 1.0303727
1.0370255 1.150317 0.9875384 0.972411 0.9378447 0.9568478 0.90269774 0.9584107
1.0602758 1.0894911 0.9138673 0.9093794 1.0751086 0.98255783 1.1057507 0.9769925
1.1042542 1.0847903 0.9603744 1.0506884 1.0660183 0.9610051 1.0185744 1.0113984
1.0359632 1.047791 0.98637486 1.0119934 0.9831098 0.97595465 1.0639528 0.9105225
1.0841789 0.88860047 0.7980192 1.0580502 0.94453484 1.0920051 0.97377694 1.0984182
1.1287756 1.0030255 1.0490922 0.9112951 1.0108702 1.0556245 0.99730486 1.0569254

bn2.bias f4 [64]
00000000: e6cb 163d a075 b9bd 109f ebbd 8be2 bebd
00000010: 9520 63be 719c c8bd 1974 22bb 9696 97bd
00000020: fb06 86bc e320 49be db47 d0bd 8825 76bd
00000030: 5da5 f5bd 5e42 47be f182 46be 7aee 1dbe
00000040: d9d7 46bd 1e50 0abe 570f 35be 5a8d 71be
00000050: 5a7f 1bbe 723b 60bc bb32 28be cd3a 90be
00000060: 6911 1ebe 7fc6 5fbe 53b0 9abe aa60 23be
00000070: cc27 47be 7654 86be bd60 40be e05c 94bd
00000080: 91b6 cabd 98af 0cbe dbfe 1abe 669c 14be
00000090: b638 07be f5f7 63bc cc5c 2dbe 4537 86be
000000a0: d724 0ebd bc36 eebd f35c 0cbd fb6a 26bd
000000b0: b57f 26be 1df6 54be 0275 95bd 12ae 0abe
000000c0: 3cf2 9abd 3f25 39be c86b c1bd e597 f8bd
000000d0: d4f9 b3bd 4241 ddbc 5fdf 9dbc f42c 21be
000000e0: 4c5e fbbd 2c82 f8bd e3a6 0fbe 0a24 76be
000000f0: 7636 40bc 1424 fdbd 1f42 2dbe c266 05bd
0.036815546 -0.09055638 -0.11504948 -0.093205534 -0.22180398 -0.09795464 -0.0024788438 -0.07401769
-0.01636075 -0.19641452 -0.10169955 -0.060094386 -0.11994431 -0.19458911 -0.19385888 -0.15423003
-0.048545692 -0.13507125 -0.17681633 -0.23589078 -0.151853 -0.013686048 -0.16425602 -0.2816986
-0.15436329 -0.21853064 -0.3021265 -0.15954843 -0.19448775 -0.26236314 -0.18786903 -0.07244277
-0.09898103 -0.13738859 -0.15136282 -0.14512786 -0.13205227 -0.013914098 -0.1692993 -0.26214042
-0.034703102 -0.116315335 -0.03426833 -0.04062937 -0.16259654 -0.2079701 -0.07297708 -0.13542965
-0.07565734 -0.18080615 -0.09444386 -0.121383466 -0.08787885 -0.027008656 -0.01927155 -0.15739805
-0.12273845 -0.12134203 -0.14028506 -0.24037185 -0.0117317345 -0.12360397 -0.16919754 -0.0325687

bn2.running_mean f4 [64]
00000000: 33d1 3cbf fb4b efbd d8f0 723d 59ee 11be
00000010: a735 f3be bf4d 5bbf 3276 d9be 186c 5eba
00000020: a5b6 36bf 04e8 78be 3297 7cbd 59e9 43bf
00000030: dfd3 25bf 7dc0 4dbd 4549 4abf b035 e3be
00000040: 2523 29bf 9e5b 75bf 223a 813e 69bb 1fbf
00000050: 5751 623d 1d4b 3b3d 4ac7 353f b82b c1be
00000060: d764 35bf 6c7e a1be 25f3 d7be 36d6 f0bd
00000070: df3d 04bf 9c80 563f 8b2b 1dbf dfe7 45bf
00000080: ea00 24bf ac33 72bf 05eb 0dbd 26a6 0dbf
00000090: 4199 3cbf 7ba3 f8be 4849 28bf 62b1 83be
000000a0: c6c9 77bf b2df 4cbf 93cd 23bf bf28 42bf
000000b0: 7b5b dd3d eaec 833d 4daf 50bf dcd0 2abb
000000c0: 53f2 44bf 8a0f 8f3e 3f3a e7bb 8b83 66bf
000000d0: beda 76be 7c4a 57bf 9315 43bf 74e3 4ebf
000000e0: b727 1abf 26c9 1fbf 0d17 5ebf 02a4 5a3e
000000f0: 20f0 24bf 3e81 3fbf 50fa 0bbf c0d9 d5be
-0.7375671 -0.11684414 0.059311718 -0.14251079 -0.4750187 -0.85665506 -0.42472988 -0.0008484735
-0.71372443 -0.24307257 -0.06166763 -0.76527935 -0.64776415 -0.0502324 -0.7901805 -0.44376898
-0.6606925 -0.9584292 0.25239664 -0.6239534 0.055253353 0.04572593 0.71007216 -0.37728667
-0.70856994 -0.31541765 -0.42177692 -0.117596075 -0.5165691 0.8378999 -0.61394566 -0.7730693
-0.64063895 -0.94610095 -0.03464796 -0.5533165 -0.73671347 -0.48562226 -0.6573682 -0.2572127
-0.96792257 -0.8002883 -0.63985556 -0.75843424 0.10808464 0.06441672 -0.8151749 -0.0026064431
-0.7693226 0.27941543 -0.007056504 -0.9004447 -0.24106881 -0.8409803 -0.76204795 -0.80815816
-0.6021685 -0.62416303 -0.8675392 0.21351627 -0.644289 -0.7480658 -0.5467882 -0.41767693

bn2.running_var f4 [64]
00000000: 119f 4540 bc49 853f 9d54 843f db3a 273f
00000010: 9b41 183f 1527 2840 aa05 b53f 0610 4a3f
00000020: 957b 873f 4479 9a3f 1af7 cb3f accb 1b40
00000030: 22c8 983f bf75 543f 05db e03f ba41 823f
00000040: 763c c43f 6c79 4440 06c4 c43f 8be0 fb3f
00000050: 098b f23f 8b89 f03f 148b 863f 105d 0b40
00000060: 9809 e63f 83bb 883f 4f2a ae3f 04b9 c03f
00000070: b500 9d3f 69e3 cb3f f49a b93f 1d68 1740
00000080: 306a fd3f 5bbb 0940 e7f8 3b3f 06dd 933f
00000090: eb9f 0040 893a fc3f 157c 3540 f37b c03f
000000a0: 2281 5340 2d02 1740 ca8d ce3f 7b0a 903f
000000b0: 4044 843f 6d02 8c3f db3b 3440 d7cd 983f
000000c0: 6896 ad3f fae3 a53f 09d3 9d3f 0fbd 0140
000000d0: 67aa 0c40 1c71 1c40 6b50 f93f f219 ab3f
000000e0: 3a47 9f3f d56e 833f a0ad 0040 bc47 f93f
000000f0: 28f3 9d3f cbd1 e83f ca6e ae3f c485 493f
3.0878336 1.0413127 1.0338322 0.6532418 0.59475106 2.6273854 1.4142354 0.789307
1.0584589 1.2068257 1.5934784 2.4343061 1.1936076 0.82992166 1.756684 1.0176308
1.5330951 3.069911 1.5372322 1.96779 1.894868 1.8791975 1.0511193 2.177555
1.7971678 1.0682224 1.3606662 1.5056462 1.2265841 1.5928775 1.4500413 2.3657296
1.9798031 2.1520603 0.7342667 1.1551826 2.0097606 1.9705364 2.8356984 1.5037826
3.3047566 2.3595078 1.613702 1.1253198 1.0333328 1.093824 2.8161533 1.1937817
1.3561525 1.2960198 1.2330028 2.0271642 2.1979005 2.4444036 1.9477667 1.3367293
1.2443612 1.0268198 2.0105972 1.9475017 1.233983 1.8189024 1.362756 0.78719735

conv3.weight f4 [128, 64, 3, 3]
00000000: 2989 4cbd e6ad a3bc 0c95 6cbd f5d1 5dbd
00000010: c202 25bd 3259 9bbd 4301 abbd 929e 17bd
00000020: 098b cbbd 950a 873d ae3d 103c cd9a 403d
00000030: b524 053d c062 c53c 8387 173d 9771 8a3d
00000040: b326 e63c de73 933d e3b0 1b3d af7e 2b3d
00000050: a1ef 3e3d d77d 133d 6a57 ca3c e714 613d
00000060: e4a5 333d 48da 813d 10be 503d b85c c8bc
00000070: 7224 3bbd bbd9 b3bd 63d2 203c 9951 1ebc
00000080: 55a4 45bd f296 3539 ae9d f7bb 9d81 04bd
00000090: d266 06bd 43af f0bc 4eea 3cbd caa9 bbbc
000000a0: 9b4c 01bd e17b d2bc 1b8e 4d3c 26dd e1bb
000000b0: 94d5 48bc d781 b3bd fee0 78bd 42ad e2bd
000000c0: ad9e 43bd 6f7a 5bbd e515 a9bd 566a e3bd
000000d0: 0faf a1bd a7c4 c9bd ea54 1e3d c5de b03c
000000e0: b4b9 bf3c 6add 973c a070 f83c a8b9 323c
000000f0: c399 0f3d 671b 133b 2c7d b13c 16ee fc3c
00000100: 0288 1c3d ad8d 573d 24c2 213d 435f 383d
00000110: 2ba6 783d fd89 b93c 025b 153d 2491 3f3d
00000120: 74f8 cabc 2084 a5bc 7cd9 4abc 24ec 0ebd
00000130: 25c4 0dbc 233d 83bc 22bc 82bd 9077 8bbc
00000140: aeaa 47bd e029 ac3d aa4b 8d3d a1f3 b43d
00000150: 5010 793b 4b8b 3e3d da1b 013d 6011 a03d
00000160: f977 3b3c deb9 863c c1a6 be3c eebd fa3c
00000170: 5c95 063d b8a3 fcbb 9eb5 cd3c 4b96 a03c
00000180: 2300 353c 10e8 8ebc 46f0 003d 7fc8 3a3d
00000190: e413 9f3c c8d4 133d 1d30 983c c46a 92bc
000001a0: 56a7 a73b 52e1 04bb 76f3 b5bc 314f eb3c
000001b0: 0175 613d 90e2 643c 2042 193d 78e5 0e3c
000001c0: 6944 e3bb ff01 023d 8af7 a8bb 090c 25bc
000001d0: 4491 fe3c 40c7 ec3c 79f5 9c3c 9ec1 a53c
000001e0: 0069 543c 2dd0 833c bb29 b7bc 0d74 48bc
000001f0: d7db 403c 35d5 a6bc fbb7 88bc 8ae1 7bbc
00000200: 582c 12bd 9bb9 d1bc 183b b5bb 0da1 44bd
00000210: 035c 85bd e42d 15bd 793b 09bd 8a9d f83d
00000220: e74a 463d 3725 823d 4aa7 873d f38c 683d
00000230: 03d0 a73c d93e ce3d 7353 5e3d 18f5 cb3c
00000240: 07d8 053e 9812 b03d 60df 183e a4d9 c43d
00000250: 16aa 963d 66da da3d a888 db3d a4a9 bf3d
00000260: 0c6d c63d 03df 00bd 807b b6bc 0268 84bd
00000270: 1be4 403c 823f d2bc 077c f8bc 055e c53c
00000280: 0093 bd3c 6d53 69bc 5261 37bc 07bb 223b
00000290: 0bb3 48ba 2f9b 21bc 5a81 37bd 57f2 1dbd
000002a0: e03e 73bb d98b 2b3a cf0c 3cbd c6ea d1b9
000002b0: a01a 0cbd bc36 f2bc 90b7 02bd 00ad d93c
000002c0: 6d49 793c fbc2 52bc f45f a7bc 49a1 e73c
000002d0: 0db9 debc 91a2 40bd 5746 383c ae09 54bc
000002e0: 504c d0bc f7b3 1f3c 4d2c 63bc 79bb 0abd
000002f0: 67fb 03bd bbac 6bbd d472 b3bc 83b9 58bd
00000300: 21d8 26bd 4762 f5bc 1899 0bbd 524e 30bd
00000310: bde2 a2bc e911 89bc 623f 6ebc 38c2 5abd
00000320: a89f 18bd 3257 25bc 71e0 993b 3289 b2bc
00000330: e8fa 71bc 9a32 4dbd abc5 c9bc 93ca d4bd
00000340: 2784 61bd 521d a0bd dc44 b4bd c281 00bd
00000350: e16c 82bd 9f15 f8bd 7e96 67bd fab8 aebd
00000360: 9a3b 96bd cab8 46bd 7aad b7bd efee bcbd
00000370: 4136 37bd 79ca c0bd bc8f bcbd 3e87 a0bc
00000380: c44b bfbd 2a6a cfbc 5f85 d53b b913 abbb
00000390: 4346 22bb 1b9f be3c d12f 43bb 4de0 0e3d
000003a0: 3687 8e3c 3f5b de3c 8bfc 50bd 6e90 3dbd
000003b0: 32bc 0ebc 2c85 6d39 6608 9ebb fc81 ecbc
000003c0: 3c5b 0bbd 01d0 06bd fd54 3cbd cc12 043d
000003d0: d36b 173c dc01 9e3c 8874 473b 5e45 a6bb
000003e0: 98b3 963c 3695 903c cd94 3f3c 5c9c 173d
000003f0: e297 633d d60b 3b3d d617 133d 1633 283d
-0.049935494 -0.019980382 -0.05775933 -0.05415531 -0.040285833 -0.07585372 -0.0834985 -0.03701646
-0.09938628 0.06593815 0.008803768 0.04702263 0.03250571 0.02409494 0.03699447 0.06759947
0.028094625 0.07199834 0.03801049 0.04186886 0.046615247 0.036008682 0.024699885 0.054951575
0.043859378 0.06340462 0.050962508 -0.024458274 -0.045689054 -0.08781763 0.009815785 -0.009663009
-0.048252422 0.00017317737 -0.0075566387 -0.03235017 -0.0328129 -0.029380446 -0.046121888 -0.02290811
-0.031567197 -0.025693836 0.012546088 -0.006892818 -0.012257952 -0.08764999 -0.060761444 -0.110682026
-0.047758747 -0.05358356 -0.08256129 -0.11104266 -0.07894718 -0.098519616 0.0386552 0.0215906
0.02340398 0.018538196 0.030327141 0.010908522 0.035058748 0.0022446753 0.021666132 0.030875247
0.038215645 0.052625347 0.039491788 0.045012724 0.060705345 0.022648806 0.036463745 0.046769276
-0.024776675 -0.020204604 -0.012380954 -0.03489317 -0.0086527215 -0.016020363 -0.0638354 -0.017024785
-0.048746757 0.084064245 0.068991974 0.08835531 0.0038004108 0.04651956 0.031520702 0.07815814
0.011442178 0.01644605 0.023272874 0.030608144 0.032857284 -0.0077099465 0.025111016 0.019602915
0.011047396 -0.01744464 0.031479143 0.045601364 0.019418664 0.036091596 0.01857763 -0.017873175
0.0051163835 -0.0020275903 -0.022210818 0.028724285 0.055043224 0.013970032 0.037416577 0.008721702
-0.0069356454 0.031740185 -0.005156462 -0.01007367 0.031075127 0.028903604 0.01916002 0.020233925
0.012964487 0.016090477 -0.022358766 -0.0122347 0.011771164 -0.020365337 -0.016689291 -0.015373597
-0.03568682 -0.025601199 -0.005530726 -0.048005152 -0.065116905 -0.036420718 -0.033503983 0.12139423
0.048411276 0.063547544 0.06623705 0.056775045 0.02048493 0.10070581 0.054278802 0.024897143
0.13070689 0.085972965 0.14928961 0.09611824 0.0735666 0.106861874 0.107194245 0.09358528
0.09688768 -0.03146268 -0.022275686 -0.064651504 0.011773135 -0.025665049 -0.030332578 0.024092684
0.023141384 -0.014241082 -0.011192637 0.0024830715 -0.0007656074 -0.009863659 -0.044801094 -0.03856119
-0.0037116334 0.0006543971 -0.045910653 -0.00040038506 -0.03420508 -0.029567115 -0.03191334 0.02657175
0.01521526 -0.01286387 -0.020431496 0.028275149 -0.027187848 -0.047030035 0.011247239 -0.012941761
-0.025427014 0.009747497 -0.013865543 -0.033870194 -0.032222178 -0.057537775 -0.02190534 -0.052911293
-0.04073346 -0.029954089 -0.03408155 -0.043043442 -0.019883508 -0.016732173 -0.014541479 -0.053407878
-0.037261635 -0.01009159 0.004695945 -0.021793935 -0.014769293 -0.050097086 -0.024630388 -0.103902005
-0.05505767 -0.078180924 -0.088021964 -0.031373747 -0.06368423 -0.12113499 -0.056540005 -0.08531375
-0.07335587 -0.048516072 -0.08968635 -0.092252605 -0.044729475 -0.094136186 -0.09207103 -0.019595739
-0.09340623 -0.025319178 0.006516143 -0.005220857 -0.0024761118 0.023269227 -0.002978314 0.03488188
0.017398458 0.027143119 -0.051022094 -0.046280317 -0.008711861 0.00022651692 -0.0048227785 -0.028870575
-0.034022555 -0.03291321 -0.04597949 0.03224449 0.009242016 0.019287996 0.0030434448 -0.005074187
0.018396184 0.017649274 0.011693192 0.03701435 0.05556477 0.045665585 0.035911404 0.041064344

conv3.bias f4 [128]
00000000: dca6 443d fc12 073c aabb 29bd dabe b13c
00000010: db81 10bd e00a 35bc ca21 e43c 5844 1ebd
00000020: f95d 18bd ada6 a03c f61f 213d 67e7 86bd
00000030: f611 14bd 4b6a 923b 9c9d be3c ef94 903d
00000040: 008c 93bc d4a3 11bd 8d43 053d 7a38 8ebd
00000050: 0da4 383c 1ed8 0c3b e1d6 74bc fe63 0fbd
00000060: 21bd ae3a 3c3b 8fbd 054e 33bc 73bc 393c
00000070: 2cef 323c 715b bebc 50b4 cc3b 8462 2b3c
00000080: 4626 0bbc 2f9c fcbc b3c9 dfbc 56de c23c
00000090: e961 c83c b120 973c e920 633c 13a7 1c3d
000000a0: f355 fd3c 53df 3cbd 3da8 423d eaa5 babd
000000b0: 1dc1 1d3c a8e5 103d 30d7 763d 6b42 853c
000000c0: 7ba5 053d 4a08 2c3d 9b79 773d 448c 4bbd
000000d0: c6e9 3cbd b857 73bb d464 b8bc a7bf c13b
000000e0: 8735 85ba ad51 9f3c 08b7 35bc 9128 e33c
000000f0: 9576 283c cf8b 9b3c eaf3 2dbd 5b82 b3bc
00000100: 88b2 1e3d f404 923c f118 d1bb d3cd 513d
00000110: 2b9e 513c 2ca5 68bc 1699 df3b b06b 94ba
00000120: 3c27 88bd 7dcc 203b f202 593b 63f5 ac3d
00000130: 752e 383d 7e28 003c 2cd0 bdbc 56dc ebbc
00000140: 16c0 eb3b ff93 9c3d d2eb 7f3c 4c0f dd3c
00000150: dd73 54bc 0644 1d3d 7b75 50bd aec6 4d3d
00000160: bead 0dbd 9ce6 c03c 342e f3bc 9aaf 8b3b
00000170: 72f4 af3a 7708 63bd 61cd 8a3d e063 a6bc
00000180: a4a6 37bd 00c1 353b 32e1 8ebd ac03 0fbd
00000190: 3636 a1bd 83bb 013d 8330 773a f9ba 333d
000001a0: 6538 aa3d 4cc6 11bc ce13 933d 255b aa3b
000001b0: f47f dd3c 4b52 1ebd a092 6cbd d9ed 263d
000001c0: 8a68 123d 178e 8539 5b52 a43c 6901 bbbb
000001d0: ed89 62bd 45ff 903c 73fa 933d 219a 123d
000001e0: 6c3a 34bc 7db3 e63b d7a0 133c ad54 14bc
000001f0: d5f6 ebbc 00a1 243d 627e bb3b f05e 593d
0.048010692 0.008244272 -0.041438736 0.02169745 -0.03528009 -0.011049956 0.027848143 -0.038639396
-0.037198994 0.019610727 0.03933712 -0.06587105 -0.03614994 0.0044682375 0.023268513 0.07059657
-0.018011093 -0.03555663 0.032535125 -0.06944366 0.0112695815 0.002149112 -0.014943809 -0.03500747
0.0013331511 -0.0699372 -0.010943894 0.011336434 0.010921281 -0.023236962 0.006247081 0.0104605
-0.008493012 -0.030836193 -0.027317857 0.023787659 0.02446075 0.018448206 0.013862827 0.038245272
0.030924773 -0.046111416 0.047523726 -0.09113677 0.009628561 0.035375267 0.060263813 0.016267022
0.032628518 0.042000093 0.060418706 -0.049694315 -0.04612138 -0.0037131142 -0.022509016 0.0059127393
-0.0010163047 0.019448126 -0.011091001 0.027729305 0.010282178 0.018987564 -0.042468943 -0.021912744
0.03874448 0.017824627 -0.006381147 0.05122168 0.012794058 -0.014199536 0.006823669 -0.0011323597
-0.06648108 0.0024535947 0.0033113328 0.08445241 0.04496618 0.007822154 -0.023170553 -0.028791588
0.0071945293 0.076454155 0.015620189 0.026984833 -0.012967077 0.03839495 -0.050893288 0.050238304
-0.03458952 0.023547463 -0.029685117 0.0042628767 0.0013424291 -0.055427995 0.06777454 -0.020311296
-0.044836655 0.0027733445 -0.06976546 -0.03491561 -0.07871668 0.031672966 0.0009429531 0.043879483
0.08311538 -0.008897375 0.07181512 0.0051988536 0.027038552 -0.0386527 -0.05775702 0.040754173
0.035744227 0.00025473602 0.020058801 -0.005706955 -0.055307318 0.017699847 0.07225504 0.03579152
-0.011000257 0.0070404396 0.009010515 -0.009053391 -0.028804222 0.040192604 0.005721853 0.053069055

bn3.weight f4 [128]
00000000: 92e5 d43f e0fc c33f cb9e dd3f b254 de3f
00000010: f71e df3f 82f3 bc3f 683d da3f 3169 d03f
00000020: f623 bf3f e95e dc3f aae4 e13f 2a2e ea3f
00000030: 5d0e d93f cc68 c13f 41c4 bf3f 5339 cd3f
00000040: a0df d63f db33 df3f 312a dd3f c1e8 c93f
00000050: 872c d23f d279 da3f 69d6 d23f 8c4c dc3f
00000060: 719e df3f 60b6 cb3f b504 e73f e7ad ce3f
00000070: 7984 e23f c3e6 ea3f c5cd d63f ab5c c53f
00000080: 4d0b d73f bce6 db3f 17d2 de3f d7a4 d73f
00000090: 940f db3f bf17 d53f 415d db3f c37c de3f
000000a0: 434a e03f b75c e03f bf0d e03f 9a28 d93f
000000b0: 453a db3f cf6f d13f 2312 e03f 2079 eb3f
000000c0: 1554 db3f 211c da3f 7c4a d73f 1017 d73f
000000d0: eb92 cb3f 949d d83f 1d16 df3f 1aab c23f
000000e0: c6b0 e83f 0dc9 df3f c26b dc3f 69a7 c43f
000000f0: f8b9 d63f 275b b93f 41b0 df3f 81cb db3f
00000100: 7da3 eb3f d388 dc3f f10c d93f a655 df3f
00000110: 2070 cd3f 3f47 c83f b2c7 db3f ef48 e13f
00000120: f62d db3f 5a0b d53f 083c dc3f e40c e23f
00000130: 989b e13f a7c3 e23f b251 e33f 6f1e da3f
00000140: 013c da3f 2040 d63f c7af e23f ba1c df3f
00000150: c78b d33f aa64 da3f 3f72 bb3f 9999 da3f
00000160: 54f6 bb3f 9cda c93f a65c e93f 277f c83f
00000170: 3e0b d13f fae0 e23f aae7 d83f 252a dd3f
00000180: d0ec d73f c2b0 ba3f 9773 e33f 5285 c73f
00000190: 663c de3f 9086 e43f 476e db3f 91de de3f
000001a0: b0cd e93f 9774 d53f 4ac7 e23f 2b3a d33f
000001b0: 19c1 db3f 76f5 bc3f a498 e63f 5a3b d23f
000001c0: 91c7 e03f 0efe dd3f 9150 d73f c1e6 c73f
000001d0: e561 c73f 12fd e93f f3cf c03f b85b db3f
000001e0: be39 db3f a042 bd3f 29fb e23f 394a d63f
000001f0: f4fa da3f 4717 e23f 1481 e13f 5cc7 c53f
1.6632559 1.5311546 1.7314085 1.7369597 1.7431325 1.4761813 1.704999 1.6282102
1.493285 1.7216464 1.7647908 1.8295338 1.6957508 1.5110106 1.4981767 1.6033119
1.6786995 1.74377 1.7278501 1.5774156 1.6419839 1.7068427 1.6471683 1.721086
1.7470227 1.5915031 1.8048311 1.6146821 1.7696677 1.8351673 1.6781546 1.5418905
1.6800324 1.717979 1.7407864 1.684718 1.7114129 1.6647872 1.7137834 1.7381824
1.7522663 1.7528294 1.7504195 1.6965516 1.7127157 1.6362246 1.7505535 1.839634
1.7135035 1.7039834 1.6819606 1.6803913 1.5904211 1.6923089 1.7428623 1.5208466
1.8178947 1.7483231 1.7220385 1.536359 1.6775503 1.4480942 1.7475663 1.717148
1.8409268 1.7229255 1.6957074 1.7448013 1.6049843 1.5646743 1.7170317 1.7600383
1.7123401 1.6644089 1.720582 1.7660184 1.7625608 1.7715958 1.7759306 1.7040538
1.7049562 1.6738319 1.7709893 1.7430642 1.6527032 1.706197 1.464424 1.7078124
1.4684548 1.5769839 1.8231399 1.5663804 1.6331556 1.7724907 1.6945698 1.7278486
1.6869144 1.4585192 1.776965 1.5587561 1.7362182 1.7853565 1.7143029 1.7411672
1.8265896 1.6676205 1.7717068 1.6502126 1.7168304 1.4762409 1.8015332 1.6424363
1.7560903 1.7343156 1.6821462 1.5617296 1.557675 1.8280356 1.5063461 1.7137365
1.7126997 1.4785957 1.7732898 1.6741401 1.7107835 1.7663354 1.7617517 1.5451465

bn3.bias f4 [128]
00000000: 90fe 9b3d 4275 583e 2199 403e 2dca 7e3e
00000010: 9650 213e 65bc 853e 30b2 133e bdc1 873e
00000020: 21aa 593e fe74 853e a93e da3d 4bf1 7b3e
00000030: 09c2 5f3e cafe 603e bb92 4b3e ba40 863e
00000040: d078 1c3e 61a2 5f3e ea04 0c3e d234 713e
00000050: e2ac 553e d30e bd3d 8643 3c3e 80c8 3f3e
00000060: 7e51 8e3d 9c13 513e 58d3 1d3e a1a2 863d
00000070: c186 763e a225 283e ac3a a53d 4179 843e
00000080: 24d0 663e fddb b93d c955 2d3e 51cf 7d3e
00000090: 7f09 f93d 92e5 0b3d 2b4e 893e 25a2 583e
000000a0: 12ac 1f3e b9fa ef3d fe49 873d 3d28 343e
000000b0: d19c 113e 7b91 713e 2c4f 4d3e add5 f73c
000000c0: a8e5 973d 4176 863e 4c33 c63d 232b 243e
000000d0: c5ab 873e 680d b43d 65dd ee3d 28e8 893e
000000e0: 439c 103e a0be 7e3e 5018 0b3e 4c48 403e
000000f0: 9b89 763e 22ca 363e 06fc d23d e1cc 023e
00000100: 45d0 033e 7006 633b 833b 7c3e c58b 743d
00000110: c1a6 713e 1d1f 753e 5cac 573e e90a 2d3e
00000120: f3c2 9b3e 3995 2f3e 6cce 403e 7b7c 7e3e
00000130: 115b 803e 6cd8 833d 38a3 d3bc a42e 713d
00000140: 2db9 b03c 45b5 773e 9bfc 1b3e c2c8 9f3d
00000150: 0933 663e 49f4 223e 35e4 813e def4 313e
00000160: ac97 4a3e 444d 703e 3979 173e 864d 863e
00000170: 8853 183e a2e7 133e 21ba 4d3e 8cef 303e
00000180: 9453 1b3d f846 733e 2257 573e 3b3e a63e
00000190: 1828 6a3e 71b3 dc3d 7990 783d 2c0f 0b3d
000001a0: f303 183d 16d0 363e eff2 4e3e de7f 483e
000001b0: 9bd7 fe3d a4da 5e3e 61e2 6f3e 16c1 8c3e
000001c0: 7063 b93d 3c03 0f3e 5cd4 253e 3d7f 883e
000001d0: 9533 5e3e 31b6 f53c e9c4 9b3e 29da 3d3e
000001e0: 431d ef3c b396 4c3e 0e2b 993d 0efd 7b3d
000001f0: c8d4 fe3d 15df 763e 376d cb3d 7b96 773e
0.07616913 0.2113848 0.18808414 0.24881811 0.15753397 0.26120296 0.14423442 0.26514998
0.21256305 0.2606582 0.10656483 0.24603765 0.21851362 0.21972194 0.19880192 0.26221257
0.15280461 0.21839286 0.1367375 0.23555306 0.20866731 0.09231343 0.18385133 0.18728828
0.06949137 0.20417637 0.15412652 0.06573988 0.24074842 0.16420606 0.080678314 0.2587376
0.22540337 0.090751626 0.16927256 0.24786116 0.12160014 0.034154482 0.2681745 0.21155603
0.15592983 0.117177434 0.0660591 0.17593475 0.14219977 0.23590653 0.20049733 0.030253256
0.0741685 0.26262096 0.09677753 0.1603208 0.26498237 0.087916195 0.116633214 0.26934934
0.14122109 0.24877405 0.13583493 0.18777579 0.2407593 0.17850545 0.10301976 0.12773468
0.12872417 0.0034641288 0.24632077 0.059703607 0.23598768 0.2393765 0.21061844 0.16898693
0.30422172 0.17146768 0.18828744 0.24852173 0.25069478 0.064377636 -0.025834665 0.05888237
0.021572674 0.24190243 0.1523308 0.078019634 0.22480406 0.159135 0.2536942 0.17378566
0.1978442 0.23466974 0.14792337 0.2623102 0.14875615 0.1444383 0.20090534 0.1727888
0.037921503 0.23757541 0.21029332 0.32469353 0.22866857 0.10776413 0.060684655 0.033950016
0.03711314 0.17852816 0.2020986 0.19580027 0.12443467 0.21763092 0.234262 0.27491063
0.09052169 0.13966078 0.1619429 0.26659575 0.21699364 0.029994102 0.30423668 0.18540253
0.029188758 0.19979362 0.07478915 0.06152063 0.124429286 0.24108537 0.099329405 0.24178497

bn3.running_mean f4 [128]
00000000: aa68 3abe 278e a3bd dc83 28be 946d 5c3c
00000010: 933a 253e ccc4 5cbe 6c2b 17be 9d42 66be
00000020: 70ca 87be 12b9 603e 6b05 073e 3059 8dbd
00000030: 46d4 24bd 35d5 90be 4315 0fbd 8f70 9f3e
00000040: add7 a4bc fb93 013e 4fbc 09be b76c 05bf
00000050: 6561 7d3d 7bc3 8fbe 5904 5bbd d5bd 13be
00000060: 8e40 b8be 8b72 9fbe 7677 5dbe 833d 46bc
00000070: bfc4 a13d 0b71 0bbf 6568 6dbe 561a a1bd
00000080: c614 933d 9465 cfbd c1ae ebbe 9e93 34be
00000090: a871 41be 866c 5dbe 6b2a 813d 55f8 0cbe
000000a0: 23df 273e d8b5 18bf 8fbe c5bd 6381 903d
000000b0: 9945 e8be 8a66 46be ebf5 ae3d a266 55be
000000c0: 7ca4 3ebe cc52 31be 3e48 dd3a 7ab4 e8bd
000000d0: 8dd8 97be af16 b4be 0ef8 c1be 56d7 253d
000000e0: b32f e3be 46b4 283e 5e65 a0bb d234 92bd
000000f0: fa75 ad3d e1ef a73c f683 8cbe 3af3 0bbe
00000100: cae8 07bf bc30 a8be b402 70be 871e 98be
00000110: b040 34bd 58cf a63d 74f4 b8bd 063f b2be
00000120: 1dc0 823d 642d 193d 829c 183d 7ff2 2fbe
00000130: 5729 7bbc 92d8 f7be cc76 8bbe 86e8 a7be
00000140: 8b30 13be e195 953e 67b9 4bbe 9506 a5be
00000150: d24b 7dbe 005c dcbe 2f4e bebd 0144 92bd
00000160: 4d55 73bd 4033 023e 3bb2 1a3c cd9d 1cbe
00000170: b136 b13c 740f f0bd c805 103d 2a76 ccbe
00000180: 264f d6be 5df0 ad3d a32f 7e3d 50c2 1bbc
00000190: eedc 1abe 29d2 3f3d fd3c dabe a019 80be
000001a0: 8334 bdbd 29f8 e63d 64a8 d73d 12ed c33d
000001b0: 8102 d4be 3cec fcbd 4aa6 85be de6a afbd
000001c0: 4287 a33d 0aad d0be 4b5f a7be 20a8 193e
000001d0: 0c42 0ebe 667f 56be aaef d33d cb64 9bbd
000001e0: 5b41 c3be c632 cdbd fc2b 2abe 5b5b 9cbe
000001f0: f996 d5bd bcfa b2bb 8b79 ebbd 5c82 723d
-0.18203989 -0.07986098 -0.1645655 0.01345386 0.16135626 -0.21559447 -0.14762658 -0.22486348
-0.26521635 0.21945599 0.1318566 -0.06901777 -0.040241502 -0.28287664 -0.034932386 0.31140563
-0.020122373 0.12654106 -0.1345074 -0.5211901 0.06186046 -0.28078827 -0.053470943 -0.14427884
-0.3598675 -0.31142077 -0.21627602 -0.0120996265 0.078988545 -0.54469365 -0.23184355 -0.07866351
0.071816966 -0.10126796 -0.46031764 -0.17634436 -0.18891013 -0.2162343 0.06306919 -0.13766606
0.16393714 -0.5965247 -0.09655487 0.070559286 -0.453656 -0.19375053 0.08542999 -0.20839933
-0.18617433 -0.17316741 0.0016882492 -0.11362548 -0.29657403 -0.35173556 -0.37884563 0.040488563
-0.4437233 0.16475019 -0.0048948964 -0.07138981 0.08469768 0.020500125 -0.27444428 -0.13667002
-0.5308958 -0.3284968 -0.23438531 -0.2971079 -0.044007003 0.081450164 -0.09031001 -0.34813708
0.06384299 0.037396803 0.037258632 -0.17182349 -0.01532968 -0.48407418 -0.27239072 -0.3279459
-0.14373986 0.2921591 -0.19894944 -0.32231584 -0.24735954 -0.4303894 -0.09292256 -0.07141877
-0.05940752 0.12714863 0.0094419075 -0.15294571 0.021632524 -0.117216974 0.035161763 -0.39933902
-0.4185726 0.08493111 0.06205715 -0.009506777 -0.1512334 0.046831284 -0.42624655 -0.2501955
-0.092385314 0.112778015 0.10530165 0.09566702 -0.4140816 -0.12349746 -0.2610343 -0.08565305
0.07984783 -0.40757018 -0.3268989 0.15005541 -0.13892382 -0.20947036 0.10348447 -0.07587584
-0.381358 -0.1001945 -0.16618341 -0.3053845 -0.104291864 -0.005462019 -0.11497792 0.05920635

bn3.running_var f4 [128]
00000000: bf50 cf3d 30e8 bc3d 3604 e53d d89f d93d
00000010: f590 973d 30b6 b63d 5970 d03d e4a0 c93d
00000020: 0785 b13d 3fe2 ee3d 10fb a23d 15e8 a53d
00000030: 383a cd3d aa79 963d 4711 b43d ff53 dc3d
00000040: 55ff ae3d 30b4 b83d e236 c03d 29d9 8c3d
00000050: f886 c23d 485a 953d d292 933d 1365 863d
00000060: 525d ba3d b622 a73d fc35 ae3d 7516 8c3d
00000070: 7e4a cd3d 8f46 f43d 7841 cb3d e070 a73d
00000080: a0a5 c33d 2114 a03d 1804 e53d 21f0 b13d
00000090: 6eef ce3d 3208 dd3d 1caa a73d f43c c33d
000000a0: 7bd8 973d 0427 f03d 242b a63d 0462 c33d
000000b0: f650 e13d f03e a83d be23 a53d ab32 c13d
000000c0: 371a d33d c25b da3d f7d6 973d d9c5 983d
000000d0: 332b a03d be95 063e 0621 bc3d 4e23 ac3d
000000e0: f24e d53d fcdc da3d 566a 8d3d 2c2b a03d
000000f0: bd69 a43d 67b1 9f3d c73f c63d 47e3 a03d
00000100: 6ab8 f63d 09e0 d43d 064a c83d ea3c db3d
00000110: 49c6 793d c866 b83d 5fce ba3d c752 de3d
00000120: fab5 c33d ccb2 9c3d 828c 853d 2af1 e83d
00000130: 8704 dc3d 4543 de3d 6430 bb3d e455 ae3d
00000140: c6e8 b03d d9e2 b13d cab1 a03d 275c b43d
00000150: 0f48 9d3d 9349 eb3d 28e7 cb3d 70d9 c83d
00000160: 1dff 083e b2cb b13d 1d48 b03d 160b 853d
00000170: a9ed 923d ed45 903d b778 ad3d d91d d93d
00000180: 00a9 ed3d 8191 d63d 402c 993d 3620 b53d
00000190: c1ff b93d 5862 863d 3690 c53d a645 e33d
000001a0: ee9a a73d 5b8c ab3d c61e c83d 7a61 ae3d
000001b0: 5376 c23d 4031 ea3d 5b39 023e 2a5a 7e3d
000001c0: 30f9 993d 1fd3 cf3d e633 ae3d 9c98 c93d
000001d0: 329e a93d ffa4 b13d 485f bc3d 3ab7 de3d
000001e0: bcf7 bb3d 366a dc3d 01a9 9f3d c71e a23d
000001f0: bc00 9c3d a343 de3d 5e0d 993d c7c1 9b3d
0.10122823 0.09223974 0.11182444 0.10626191 0.07400695 0.08921468 0.101776786 0.098451406
0.08667951 0.11664247 0.079580426 0.08100907 0.1002087 0.07347424 0.08792358 0.107582085
0.085447945 0.09018743 0.09385468 0.068773575 0.094983995 0.072926104 0.07205738 0.06562247
0.09099831 0.081609175 0.085063905 0.06840221 0.10023974 0.119275205 0.099245965 0.08175826
0.09553075 0.07816339 0.111824214 0.08688379 0.10104261 0.10792579 0.08186743 0.0953311
0.07414337 0.11726192 0.08113697 0.09540179 0.1100177 0.082151294 0.08063458 0.09433492
0.103077345 0.10662033 0.07414048 0.074596114 0.078207396 0.1314306 0.09185986 0.08405171
0.10415448 0.10686681 0.069050476 0.078207344 0.080279805 0.07797509 0.09680133 0.0785585
0.12046893 0.10394294 0.09779744 0.10704978 0.060980115 0.09003979 0.091213934 0.10855632
0.09556194 0.0765129 0.0652094 0.113741234 0.10743051 0.108526744 0.09140089 0.08512476
0.08638148 0.08685846 0.078464106 0.08806639 0.0767976 0.114886425 0.09956199 0.09807098
0.13378568 0.0868143 0.086075045 0.06496255 0.07174236 0.07044587 0.0847029 0.10601396
0.116045 0.104769714 0.07479143 0.088440344 0.09081984 0.06561726 0.09646647 0.11097269
0.08183847 0.0837638 0.097714946 0.08514686 0.09495225 0.11435175 0.12717192 0.062097706
0.07518232 0.1014769 0.085059926 0.09843561 0.082821265 0.08674049 0.09197861 0.108747914
0.09178111 0.10762446 0.07795907 0.079160266 0.076173276 0.108527444 0.07473253 0.076053195
