models/final_state_dict.pth (torch, 391075 bytes, 20 tensors)

conv1.weight f4 [32, 3, 3, 3]
000000 de 31 ab bd be 73 ba 3c ad fe 75 bd 5b bc 24 be
       -0.08359121 0.022760268 -0.06005733 -0.16087477
000010 9a 11 23 bd 82 e4 45 3e 62 79 ba 3d 2b 22 4b bc
       -0.039811708 0.1932545 0.09105183 -0.012398283
000020 71 3e 41 3e ce 34 b1 bd 88 31 1a be 9e a6 38 bd
       0.18871476 -0.0865265 -0.15057957 -0.045080774
000030 f3 23 8c bd c4 6e c0 bc 50 25 0c bc f2 b7 e6 bd
       -0.06842794 -0.023490317 -0.008553818 -0.112655535
000040 48 40 c0 3d 84 4d 0d be 82 a2 da 3d 45 d1 55 be
       0.09387261 -0.13799101 0.10675527 -0.20880611
000050 d4 ae da bd 3a e7 57 3d 35 e1 c1 3d 13 f8 36 3e
       -0.10677877 0.05271075 0.09466783 0.1786807
000060 c3 0c 8c bc 4c f2 ba 3d 64 49 2f 3e 70 4a 3d bd
       -0.017095929 0.09128246 0.1711784 -0.046213567
000070 c5 5e 34 be a2 79 9f bd df bc 16 3e 11 ec cb 3c
       -0.17614277 -0.077868715 0.14720486 0.024892839
000080 75 40 5b 3d 1e 66 1a bd 7e b5 4e 3c 69 b0 9d bd
       0.053528268 -0.037695043 0.012616513 -0.07699663
000090 41 6c b7 3d b0 81 11 be 75 d1 70 bc cb 69 37 bd
       0.08956195 -0.14209628 -0.014698376 -0.044778626
0000a0 d3 2d 2f 3e e0 b7 90 3d 06 50 f3 bd 0b 75 7d 3d
       0.17107324 0.070663214 -0.11880498 0.0618792
0000b0 d2 77 9c 3d a4 b3 ed 3d 10 17 28 be a4 fa 02 3e
       0.076400414 0.11606529 -0.16415048 0.12790924
0000c0 ff db bf 3d ea 3f 59 3c b2 f1 74 bd 2f df 3c 3e
       0.09368133 0.013259867 -0.05980081 0.18444513
0000d0 ba a2 20 be 93 24 14 be 18 44 3a 3e 67 b6 1f 3e
       -0.15687075 -0.14467077 0.18190038 0.15596925
0000e0 79 54 24 be f3 35 69 3d c4 84 fa 3d 13 b9 59 3d
       -0.16047849 0.056936216 0.12232354 0.053155016
0000f0 a2 1c dd 3c c5 d8 75 bb 8a 45 a3 bc 3b 5f 9a 3c
       0.026991192 -0.0037513238 -0.01993062 0.018844238
000100 36 40 dc 3c 01 c0 1e 3e 8e 52 23 3e c7 93 ff 39
       0.026886087 0.15502931 0.15949461 0.00048747493
000110 5a 27 50 bd 2f 40 52 3d 68 70 7a bd 7c 81 1a be
       -0.05081878 0.05133074 -0.061142355 -0.15088457
000120 b2 04 fc bc 04 20 1a bd a1 ac 16 be b9 09 22 be
       -0.030763958 -0.03762819 -0.1471429 -0.15824021
000130 ce 71 89 3c 45 27 04 bd b7 74 4a bd a5 a5 b3 bd
       0.0167779 -0.032264013 -0.049427714 -0.087718286
000140 cf 2e 80 bd 06 36 04 3e ae 39 94 3d a3 45 fb 3d
       -0.06258928 0.12911233 0.07237564 0.122691415
000150 48 43 09 bd 52 36 a2 ba fc 4a 20 3b 8c 50 1b 3e
       -0.03351143 -0.0012375808 0.0024458757 0.15167445
000160 13 22 2d be 97 b4 ca 3d 48 14 a6 bd 81 e2 f1 3b
       -0.1690753 0.09897726 -0.08109337 0.0073817377
000170 8c 83 08 3e 20 b3 2b bd b3 73 04 3e 8d f1 81 3c
       0.13331431 -0.041918874 0.12934761 0.01586225
000180 6d b7 35 be 1a 4c 2c be 92 4b 1c be 59 69 1e 3e
       -0.17745753 -0.16825905 -0.15263203 0.15469874
000190 ab 99 01 3e 87 08 c2 3d 5c 2f b3 bb 6f 3e a0 3d
       0.12656276 0.09474283 -0.005468292 0.07824408
0001a0 42 ed cf bd e7 fd fa bd 14 57 2b be ca 58 ea bd
       -0.10152675 -0.12255459 -0.16732436 -0.114427164
0001b0 1c f8 c6 3d ec e5 e1 3d 49 e4 b2 3d c8 32 d2 bc
       0.09715292 0.11030182 0.08734948 -0.02565898
0001c0 a0 53 a3 bd 84 e9 c7 bd cc f6 38 bd 96 c2 1f be
       -0.079749346 -0.097613364 -0.04515724 -0.15601572
0001d0 aa 82 7e bd ff 3d a6 3d d2 79 4d 3d c3 f4 d4 bc
       -0.06213633 0.081172936 0.050165005 -0.025995618
0001e0 a9 b7 04 bd 56 0e b7 3d fa 5b 38 bd ec 92 6f bd
       -0.032401714 0.08938281 -0.04500959 -0.058489725
0001f0 ee f3 5c be 0e aa 81 bd 12 52 07 3e 66 e7 ec 3d
       -0.21577427 -0.063312635 0.13214901 0.11567573
000200 20 07 a6 bd 2e 10 6d 3e 52 d8 ce bc 15 fa 42 bd
       -0.08106828 0.23150703 -0.025249634 -0.047601778
000210 8a 56 04 3d 47 df 08 3d 0f a2 a0 ba 63 a0 e0 bd
       0.032309093 0.03341606 -0.0012255328 -0.10968091
000220 ab da dd 3d 97 2d bc 3d b3 9d c5 bd 53 30 81 bd
       0.10832723 0.09188383 -0.09649219 -0.06308045
000230 17 f6 14 3d 26 8c 9b bd 3b 8e fc 3d 09 b7 ce 3b
       0.036367502 -0.075950906 0.12331816 0.0063084406
000240 0a 2d 29 3e 97 39 5e be 4c d3 6f be af 46 c9 3d
       0.16521087 -0.21701656 -0.23420447 0.09827935
000250 78 68 53 bd 87 3f 49 3c 7a 73 1c be fd 6e 1b 3e
       -0.0516133 0.0122832125 -0.15278426 0.15179057
000260 2f d4 21 3e 39 3a 89 3d 43 cc 6e be af a5 3f be
       0.15803598 0.06700558 -0.23320107 -0.18715547
000270 e8 b5 1f be 96 29 08 3e be 9a de bc b9 27 51 3e
       -0.15596735 0.13297114 -0.027173396 0.20425309
000280 99 3b 8c bd 0d dd 62 3e 58 60 1d bd ed ff da bd
       -0.06847305 0.22154637 -0.03842196 -0.10693345
000290 e8 f4 32 be 90 29 96 bd 19 56 f8 bb 6b be af 3d
       -0.17476237 -0.07332146 -0.007578623 0.08581241
0002a0 50 f6 06 3e 97 92 a9 bc 21 84 ca 3d ae ff 47 bd
       0.13179898 -0.020699782 0.09888483 -0.04882782
0002b0 85 43 ee bd 68 29 a6 bd 05 51 01 3e 3c 79 d3 3d
       -0.11633972 -0.08113366 0.12628563 0.10325858
0002c0 23 5b 63 3d 4b ad ae bd 7c 80 30 3e 74 d2 2f bd
       0.055506837 -0.08529147 0.17236513 -0.042925313
0002d0 20 2a 70 be 29 27 8f 3d 4b d8 3a be 4a 78 b9 3d
       -0.2345357 0.06989891 -0.18246572 0.090561464
0002e0 0a 6b 9b 3c 9d 16 ad bc 88 56 ad 3d 95 79 8d 3d
       0.018971939 -0.021128947 0.0846377 0.069079556
0002f0 d9 ff 12 3e a5 2a 28 be 7a 13 92 3c 14 e4 a4 3d
       0.1435541 -0.16422518 0.017831553 0.08051315
000300 74 ec b2 3b 21 98 08 3e 7f 7d 33 be 35 87 bd bd
       0.0054603163 0.13339283 -0.17528342 -0.09254304
000310 41 4e 13 3e 63 b5 0f 3e 1f 8a f9 bc b3 3c 91 bd
       0.1438532 0.14034037 -0.03046137 -0.070916556
000320 f3 f5 12 3e 37 16 e3 bd 67 ad 39 3c 93 89 d6 3c
       0.14351635 -0.110882215 0.011332846 0.026188647
000330 24 bc 59 be d1 a1 e5 bd 81 ee a2 3d 60 2f 9c 3d
       -0.21263176 -0.11212505 0.07955647 0.076262236
000340 43 2a 23 3e 8d 96 22 3e 4e 28 bc b7 9b 5f bd bd
       0.1593409 0.15877743 -2.2430115e-05 -0.09246751
000350 32 ba 3d bd 4a 6e 1c bd c9 d2 af bd 79 03 5c 3d
       -0.046320148 -0.038191117 -0.08585126 0.05371425
000360 59 86 fd bd 08 5a 58 bb 12 c1 dc 3d d7 76 be bc
       -0.123791404 -0.0033012647 0.10779013 -0.023250027
000370 a7 34 d0 3b 91 57 2a 3e 56 8f 49 3e ec 5b 38 bd
       0.006353933 0.16634966 0.19683585 -0.04500954
000380 61 34 33 be fe d5 19 be 29 ed d8 3d a2 8f 16 3d
       -0.1750045 -0.15023038 0.1059211 0.036758073
000390 64 e2 26 3e c3 ae 1a bd 3c cb 3c be e2 f5 2d 3e
       0.16297299 -0.037764322 -0.18436903 0.16988328
0003a0 ae 28 12 3e 6a e5 cc bd f5 0e be 3a a0 97 1e 3e
       0.1427333 -0.10004695 0.0014500307 0.15487528
0003b0 6c 4e d4 3c 61 2d d1 bd 1d 61 c1 3b bf 44 66 3c
       0.0259163 -0.102137335 0.0059014694 0.014054476
0003c0 55 aa 30 bd be 2c 00 be 90 12 38 be 95 97 41 3e
       -0.04313119 -0.12517068 -0.17975831 0.1890548
0003d0 ed 85 af bd a3 0f c9 3c a1 08 28 3d e4 09 1a 3e
       -0.08570466 0.024543589 0.041023854 0.15042835
0003e0 62 62 21 be d9 91 bc 3c c0 07 fb bd 48 0b a9 3d
       -0.15760186 0.023018764 -0.122573376 0.08254105
0003f0 eb cb 98 3d 43 ed a1 bb 2f 35 34 be 23 28 c6 bb
       0.07460769 -0.004941614 -0.17598413 -0.006047265

conv1.bias f4 [32]
000000 a9 af 0e 3d 20 cd e4 bd 1c f0 ab 3d 42 30 c9 3c
       0.03483549 -0.11171937 0.083954066 0.024559144
000010 52 22 8b bd 39 3f 93 3b 02 85 38 3d 61 aa 08 bd
       -0.067936555 0.0044936207 0.04504872 -0.03336561
000020 e6 93 a8 3d 62 ae e6 3d d7 de 03 be 8f 76 25 3e
       0.082313344 0.1126373 -0.12877975 0.16158508
000030 39 cd 3f be 85 18 ee 3c 08 07 7f bd 0a 16 aa bd
       -0.1873063 0.029064426 -0.062262565 -0.08304985
000040 ea 50 4d 3d 9c 97 18 be 9e 58 84 bd a4 ad cd 3d
       0.050125994 -0.14901584 -0.06462215 0.10042885
000050 27 9a de 3d 30 3b a0 bc 1f 36 fc bd c9 42 a2 bd
       0.10869246 -0.019559473 -0.1231501 -0.079228945
000060 78 3e 0c 3d 88 77 9a bc ab b2 0e 3e 93 bf 1b bd
       0.034239262 -0.018855825 0.13935344 -0.038024496
000070 fb 5c fa 3d f4 54 39 be 99 be cd 3d 28 30 0e 3d
       0.12224766 -0.18098813 0.10046119 0.034713894

bn1.weight f4 [32]
000000 4f 2f 93 3f ec cc 67 3f e2 42 78 3f f4 0d 90 3f
       1.1498812 0.9054706 0.96977055 1.1254258
000010 69 59 7f 3f c0 03 5f 3f 9d 80 87 3f 9c b3 6f 3f
       0.99745804 0.871151 1.0586125 0.9363344
000020 6f 57 84 3f 2f bb 92 3f 47 90 68 3f cc bb 6b 3f
       1.0339183 1.1463374 0.9084515 0.9208343
000030 5f 18 6f 3f a4 11 77 3f 6c 65 74 3f 96 d3 54 3f
       0.9339656 0.9651129 0.9546726 0.83135355
000040 8f b7 8f 3f bc fc 79 3f 4f 9a 72 3f 97 f4 57 3f
       1.1227893 0.9765127 0.94766706 0.8435759
000050 0e 18 54 3f 03 6b 88 3f 99 13 94 3f 67 78 8e 3f
       0.82849205 1.0657657 1.1568481 1.1130494
000060 e3 99 5f 3f 27 0d 44 3f c4 67 89 3f 78 b9 69 3f
       0.8734419 0.7658257 1.0734792 0.9129863
000070 03 95 74 3f c8 71 71 3f bc df 78 3f 76 2b 88 3f
       0.95539874 0.9431424 0.9721639 1.0638263

bn1.bias f4 [32]
000000 51 96 c8 bd 56 46 a1 bd c6 a4 a0 bd 82 b4 dc bd
       -0.097942956 -0.07874744 -0.07843928 -0.10776617
000010 53 9e ae bd 30 5d eb bd 0e 18 0c be c6 89 07 3e
       -0.08526292 -0.114923835 -0.13681051 0.1323615
000020 05 14 8a bd b4 10 2a be b8 2c c8 bd 0f ea d8 bd
       -0.067421 -0.16607934 -0.097741544 -0.10591518
000030 d9 9d bd bd f3 72 e2 bd f3 26 28 be b6 29 1c be
       -0.09258623 -0.11057081 -0.16421108 -0.15250286
000040 13 5f 8e bd 8c 83 64 bc f0 10 9d bd 63 f8 c6 bd
       -0.06951728 -0.013947379 -0.07669246 -0.09715345
000050 fa 24 40 be 92 81 59 bd 6b df f7 bd fd c1 06 be
       -0.18764105 -0.053102084 -0.121031605 -0.13159938
000060 76 de db bd c2 1e 77 be b7 92 f5 bd 27 b1 8c be
       -0.107357904 -0.24132827 -0.11990874 -0.27478907
000070 55 a3 f5 bd c2 b4 d4 bd 50 a2 f9 bd 2e 81 da bd
       -0.11994044 -0.10386039 -0.12189162 -0.1066917

bn1.running_mean f4 [32]
000000 9d b5 20 3d 26 8d b1 bd 15 cd 1c be e3 fd b5 bd
       0.0392357 -0.086695 -0.15312608 -0.08886316
000010 4f ac ee 3c 1d 85 b8 bd c5 e7 f1 3d 84 c8 b1 bc
       0.029134898 -0.09009764 0.11811785 -0.021702059
000020 48 c2 77 3a 2e cb e0 3d 54 82 52 be 85 8c 38 3e
       0.00094512524 0.109762534 -0.20557529 0.18022354
000030 ab bc 0e be 01 e7 cf 3c b4 8c 34 bd 75 2c 1f be
       -0.13939159 0.025378706 -0.044079497 -0.15544303
000040 5c dd de bc f6 79 73 be 54 6e 2c be d4 72 8c 3c
       -0.027205162 -0.23776993 -0.16838962 0.017144598
000050 ee 9a 75 bd 6b 1f 10 bd 61 ba 0f be bd 6e 1f be
       -0.059962206 -0.035186213 -0.14035942 -0.15569587
000060 68 7e 99 bd c4 e0 2d bc 68 b0 13 3e e1 38 4b 3e
       -0.07494813 -0.01061267 0.14422762 0.19845916
000070 52 5f 22 3e 1b f0 ea bd 64 3a cc 3d ca f7 49 3d
       0.15856674 -0.11471578 0.09972075 0.049308576

bn1.running_var f4 [32]
000000 5d cd 24 3e 38 07 8c 3d ab 84 ac 3d 18 80 8d 3e
       0.16093965 0.06837314 0.08423742 0.2763679
000010 df 1b 47 3e 0e 2b 23 3e c1 79 7a 3e f2 2f 18 3e
       0.19444226 0.15934393 0.24460508 0.1486204
000020 8a e7 71 3d 2b 92 20 3e 45 bd e7 3d 42 1a 07 3e
       0.059058703 0.15680759 0.11315397 0.1319361
000030 31 02 88 3d 9d b7 f6 3d 3d d0 b4 3d 12 4d 8c 3e
       0.06641043 0.1204674 0.08828781 0.2740255
000040 f2 a6 53 3d 01 ec f1 3d cc 0f 47 3d 8b d5 dc 3d
       0.051672883 0.11812592 0.04859905 0.107829176
000050 14 fa 91 3d 4b e2 81 3e f2 80 cb 3e 91 56 b8 3e
       0.07127777 0.2536796 0.39746815 0.36003545
000060 ef 39 81 3d 1d b8 60 3e bb 43 23 3e 34 be eb 3d
       0.06309878 0.21945234 0.15943806 0.11510888
000070 da 37 1b 3c 0d 18 07 3e 01 59 55 3e b5 5b 0e 3e
       0.009473765 0.13192768 0.20834734 0.13902171

conv2.weight f4 [64, 32, 3, 3]
000000 c1 9a 31 bc a6 21 5e 3c 9d 5a 43 3d 91 54 a0 bc
       -0.010840119 0.013557827 0.047693837 -0.019571574
000010 d9 81 2a 3d 4e 4c a2 3c f7 53 0a 3d ca 97 65 bd
       0.04162774 0.019811776 0.03377148 -0.05605296
000020 4d 2b c4 bc eb bc 08 bd 19 ed 63 bc 85 be 3d 3c
       -0.023946429 -0.03338329 -0.013911509 0.011581068
000030 1b 8b d2 bc ac 69 d7 3c f1 98 d3 3a 45 47 56 bd
       -0.025701096 0.026295505 0.0016143603 -0.05231406
000040 7b 4c 84 3b 19 2f 11 bc d4 96 d1 3a 85 bf 64 bd
       0.0040374375 -0.008861327 0.0015990385 -0.05584671
000050 1c 44 6c 3d a8 d5 e6 bd bc 46 ca ba 22 9d 35 bc
       0.05768214 -0.112712204 -0.0015432457 -0.011084827
000060 ae b4 d6 bc 4d be 2d 3c ab e2 7f 3d 09 c8 98 3d
       -0.026209202 0.010604453 0.062472027 0.07460029
000070 ae 16 a1 3d 14 18 87 3c a3 d6 48 bc a6 c7 c0 bd
       0.07865654 0.016490974 -0.012258205 -0.0941308
000080 42 17 46 bb 33 4c 87 3c 81 8b b1 3d 2c f2 23 3d
       -0.0030226265 0.016515827 0.086691864 0.040025875
000090 9f 44 30 bd 27 43 11 bc 31 62 a2 3c 09 e3 3a bd
       -0.043034192 -0.008866108 0.019822212 -0.045626674
0000a0 52 f1 aa bd f8 4e 2c 3d 84 8d 70 3d ed 36 77 3d
       -0.083468094 0.042067498 0.05872871 0.060355116
0000b0 00 25 6f 3d ad d2 42 3d 54 eb e9 3a 86 7d 0f bd
       0.058384895 0.047564197 0.0017846623 -0.035031818
0000c0 a5 b7 8c 3b 36 7c 9b 3d 47 71 e8 3b 07 a1 af 3b
       0.004294353 0.07592051 0.007093582 0.005359772
0000d0 80 c5 40 bd 13 40 64 bd f5 ef 43 bd 68 50 a1 bd
       -0.04706335 -0.05572517 -0.047836263 -0.078766644
0000e0 cf d1 48 bd 12 59 82 3d 9f a1 a0 bc 98 19 4b bd
       -0.049028214 0.06364645 -0.019608317 -0.049584955
0000f0 5f 94 ce 3c 5c 7f 1e bd 20 3f 9a 3a 5a ff f4 bc
       0.025217233 -0.038695678 0.001176808 -0.029906917
000100 2e de 32 bc 0d ba 9a bc 06 09 94 bd 3f c7 ab bd
       -0.01091723 -0.018887544 -0.072282836 -0.083876126
000110 d4 66 af bc 93 9d 24 bd 03 07 3f bd 44 e0 5a bd
       -0.021411337 -0.040189337 -0.046637546 -0.053436533
000120 f3 23 9d 3d 65 25 1a 3d 9f d4 05 3d e1 8f ed bd
       0.076728724 0.03763332 0.032673474 -0.11599708
000130 ee 25 6b 3c 89 0a e0 3c b6 5f 47 3d 7e 3f 83 bc
       0.014352305 0.027348774 0.04867526 -0.016021486
000140 8f dc a1 3c 1e a4 0f 3a e5 b4 23 bd 34 37 41 bc
       0.01975849 0.00054794725 -0.039967436 -0.011792947
000150 cd e6 41 bc a5 71 3a bd 80 af fa 3c d5 b7 f3 bd
       -0.011834812 -0.045518536 0.030601263 -0.119002976
000160 d0 29 2f bd ba 18 10 bd 86 ef 59 ba ea 06 43 3d
       -0.042764485 -0.03517983 -0.0008313585 0.047614016
000170 79 5d 84 3d f3 08 ef 3c 5b f0 64 3c 26 6f 6e bb
       0.06463141 0.029179072 0.013973321 -0.0036382168
000180 7a d8 eb bc 5d 2a 7a bd 32 a6 cd 3c 5a e1 47 3d
       -0.028789748 -0.061075557 0.025103662 0.048798896
000190 c9 31 67 bd 03 40 ce bc 5f 47 cd bc 0c 59 56 bd
       -0.056443963 -0.025177008 -0.025058446 -0.052331015
0001a0 52 89 dc bb 48 2f 40 3d 4a a2 cc bb 79 ba c4 3b
       -0.006730237 0.04692009 -0.0062449323 0.0060036746
0001b0 67 d1 68 3d 09 90 e6 bc 3d ac 9f ba 4d 8c 0a bc
       0.056840327 -0.028144853 -0.0012182068 -0.008456302
0001c0 46 f8 b5 bd 1e 17 13 bd 6b d0 58 bd 1d 56 e9 bc
       -0.08885245 -0.03591072 -0.052933138 -0.028483445
0001d0 73 41 0c bd 17 4f 38 bd 48 03 be bd 06 c4 17 bd
       -0.034242105 -0.0449973 -0.092779696 -0.037052177
0001e0 b7 8b 2f bd 6c 1c 1c bd bb f6 99 3b 0e bc a6 bd
       -0.04285785 -0.038113043 0.004698602 -0.08141337
0001f0 0d d3 af bc f8 70 53 3d 67 a5 95 bc bc 53 3e bb
       -0.021462942 0.051621407 -0.018267347 -0.0029041609
000200 81 14 0f bb bd 73 99 bd 53 9d 21 bb 42 1d df bc
       -0.002183229 -0.074927785 -0.0024660423 -0.02723563
000210 e2 6e ae bd 9c 52 86 bd fa 7b 22 bd 25 e8 bf bc
       -0.08517243 -0.06558725 -0.039669015 -0.023426125
000220 36 cb 96 bb f2 2d 30 3c d7 ae 14 3d 80 73 12 3d
       -0.0046018614 0.010753142 0.036299553 0.03575468
000230 17 ce 05 3d 6d 5a c8 3c 71 d9 1f 3c 2e c5 18 bd
       0.032667246 0.02445718 0.009756432 -0.03729742
000240 ca f6 3a bb 2c 49 9d 3a 6f e0 6f b9 a7 dc bb bd
       -0.0028528445 0.0011999956 -0.00022876424 -0.091729455
000250 7f 4f 68 bd 48 83 02 be e0 57 82 3d 02 4b c9 bc
       -0.05671644 -0.12745392 0.06364417 -0.0245719
000260 23 1e 05 3b 4f 1e 21 bd e6 46 3e bd 69 55 8e 3b
       0.0020312152 -0.039335545 -0.046454333 0.004343678
000270 52 49 2f bd 3a 89 81 bd 24 ac 64 3c 99 3a 52 3d
       -0.042794533 -0.06325002 0.013957057 0.051325414
000280 35 09 96 3d ca ae 9a 3d 85 09 67 3c 61 a5 d8 3c
       0.07325975 0.075528696 0.014101391 0.026446046
000290 26 89 81 3b 14 39 6a bd 0e cf 45 bd 66 de bd 3b
       0.003953117 -0.05718334 -0.048293166 0.005794334
0002a0 88 d5 86 bc 76 43 7f bb 9f 61 f7 3b 9e 8f 7a 3d
       -0.016459242 -0.0038950122 0.007549479 0.06117212
0002b0 17 2f 3e 3d a4 14 64 bd 7f 6b 4b bc 6c b2 51 bd
       0.046431627 -0.055683747 -0.012415766 -0.051195547
0002c0 58 ef a8 bd 81 59 0d bd 29 39 85 bc 20 12 f1 3c
       -0.08248776 -0.034509186 -0.016262608 0.029427588
0002d0 41 77 06 3c ff a1 8f 3c d0 a0 d8 3c 35 54 c9 bc
       0.008207143 0.0175333 0.026443869 -0.024576286
0002e0 cc 8e 63 3b 33 24 3b 3d 09 11 dd 3c 33 b2 f0 bc
       0.0034722565 0.04568882 0.026985662 -0.029381847
0002f0 ea b6 89 3c 9b 5f a0 3d 76 74 d0 3b d6 5b c8 bc
       0.016810853 0.07830735 0.0063615395 -0.024457853
000300 34 e0 3b bd 2b 12 d8 bd 7e a5 09 bc e9 2d ec 3c
       -0.045868114 -0.1055034 -0.008401273 0.028830485
000310 42 97 b6 bd 91 20 31 bd 7f 9a 33 bd 11 7b 5c bb
       -0.08915569 -0.04324395 -0.04384851 -0.003364269
000320 1a 42 6f 3d c6 f8 90 3d c7 5d 9d 3b 6e 59 28 3d
       0.05841265 0.070787 0.004802439 0.04110091
000330 1e de 17 bd 95 21 52 bc da 0b 87 3c 77 b6 79 3c
       -0.03707706 -0.012825389 0.016485143 0.015241257
000340 c2 ef 5e bd 02 36 8a bc 42 d6 3e bd b9 ff 00 be
       -0.05442787 -0.016871456 -0.04659105 -0.1259755
000350 1d 69 a4 3c 0b 0e b8 bd e6 b8 b5 bd b1 8f bc 3b
       0.020069653 -0.089870535 -0.08873157 0.005754434
000360 68 48 ae 3c 6a 3d 85 bc 6f f6 64 bd 76 c8 5a 3d
       0.02127476 -0.016264636 -0.05589908 0.05341383
000370 d5 3e 81 bd 11 22 e8 3a c3 7e bb bb 4d dd 5e 3d
       -0.063108124 0.0017710348 -0.0057218983 0.054410268
000380 19 be c8 3c b7 7e f5 bc 93 7e a3 3c 32 0b 39 3d
       0.024504708 -0.029967649 0.019957816 0.045176692
000390 c9 fa 45 bd ce de fe bc 17 62 77 bd dc 09 05 3d
       -0.04833487 -0.0311121 -0.06039628 0.032480106
0003a0 28 8c 3c bd 23 50 10 bd 76 79 8e bc d9 e6 92 bc
       -0.0460321 -0.035232674 -0.017391901 -0.017932342
0003b0 0c 29 df 3c f2 8e b3 3d 1a 6e 75 3d d0 3f d7 bc
       0.027241252 0.08767499 0.059919454 -0.026275545
0003c0 6c 76 0d 3c 80 be a3 bd b1 55 5c bd 2a 3f 02 bd
       0.008634191 -0.07995319 -0.05379266 -0.03179852
0003d0 12 19 81 bd 82 00 6a bc 76 31 88 bd a8 53 03 bd
       -0.0630361 -0.014282348 -0.06650059 -0.032062203
0003e0 51 3f a9 bc 7c 78 67 3d 4c 81 8a bd 2d 57 0d 3d
       -0.020660074 0.056511387 -0.06762943 0.034506965
0003f0 a5 1f 73 3d 05 b8 99 bc bf c9 20 bc 93 26 52 bd
       0.05935635 -0.018764505 -0.009813725 -0.05130632

conv2.bias f4 [64]
000000 23 48 07 3d e1 a7 d4 bd 1e da 40 bd 29 52 90 bd
       0.03302778 -0.10383583 -0.047083013 -0.07046921
000010 f1 cc 88 3c 03 17 34 3d 92 07 fd bc ca 4b 31 3d
       0.016699286 0.04396726 -0.030887399 0.04328517
000020 e8 a7 8f bd 7c 95 06 be a8 25 5c 3d 39 c5 0d bd
       -0.070144475 -0.13142961 0.05374685 -0.034611914
000030 ab c9 24 bd 37 35 7f 3d 36 84 ed 3c 79 9b 6c 3d
       -0.040231388 0.06230661 0.028993707 0.057765458
000040 4c 7d 94 bc d7 92 3c 3d a4 be a0 3d d4 88 1e bc
       -0.018126152 0.046038475 0.07848862 -0.009676177
000050 f2 94 58 3d e5 ca 2b 3d 0c 23 9c 3d f3 9c c3 3c
       0.05287642 0.041941542 0.07623872 0.02387855
000060 48 8a 3f bd 10 df ad 3d 46 3a 04 be 2b 49 a3 bd
       -0.046762735 0.084898114 -0.12912855 -0.0797294
000070 14 13 ab 3d 4c 65 2d 3c 5e 65 d9 3d a0 cc b0 3c
       0.08353248 0.010583233 0.106150374 0.021581948
000080 bd df bb 3d 9c 56 e6 bc 71 f9 4b 3d ad 47 4a 3d
       0.09173534 -0.02811747 0.049798433 0.04938476
000090 a3 cd 68 bd 78 a5 15 3d df 11 cc bc 3a d5 0c bd
       -0.056836735 0.036534756 -0.024910865 -0.034383036
0000a0 e3 24 28 bb a4 a5 8c bd e7 af 87 bc 2a b2 4a bd
       -0.0025656752 -0.06867531 -0.016563369 -0.049486317
0000b0 11 5f ac 3d 42 66 d8 bd 01 0c 08 3c e8 04 a3 3d
       0.0841657 -0.10566379 0.008303643 0.0795992
0000c0 0d c0 a3 3b 7d 27 98 3d 9a 9f da bc ea 1b 13 3d
       0.0049972595 0.07429407 -0.026687432 0.035915293
0000d0 56 8f 78 bd a5 4f bc 3d 77 5f 84 bd 45 a3 09 be
       -0.06068357 0.091948785 -0.06463521 -0.13441189
0000e0 16 4e 00 3b c8 5b 94 3c 83 38 35 bd d4 f7 21 3d
       0.0019577793 0.018110171 -0.044243347 0.039542988
0000f0 36 04 5d bd 14 a2 6d bc ac 74 42 bd d2 5c 6b 3d
       -0.053959094 -0.0145039745 -0.04747455 0.057461567

bn2.weight f4 [64]
000000 f2 c5 82 3f 58 43 81 3f 98 18 6f 3f fe 7a 72 3f
       1.0216658 1.0098677 0.933969 0.9471892
000010 5b 7f 89 3f b9 79 88 3f 7f 7e 6a 3f df e1 7f 3f
       1.0741991 1.0662147 0.9159927 0.99954027
000020 d4 c2 8c 3f a3 c8 5e 3f cd f7 7e 3f e8 d9 84 3f
       1.0996957 0.870249 0.99596864 1.0379
000030 af 44 89 3f 31 15 79 3f e5 f4 87 3f b9 a1 83 3f
       1.0724086 0.9729796 1.0621611 1.0283729
000040 a2 ea 84 3f a9 37 93 3f 37 b5 7c 3f ed 58 79 3f
       1.0384104 1.1501361 0.9871401 0.97401315
000050 74 6c 6f 3f b3 bc 74 3f 28 39 66 3f cd 9d 75 3f
       0.9352486 0.9560043 0.89930964 0.9594391
000060 16 cf 87 3f d3 60 8b 3f 90 a6 69 3f b4 8e 68 3f
       1.0610073 1.0888923 0.9126978 0.9084275
000070 00 94 89 3f 0c ec 7a 3f 9f 56 8d 3f 12 63 79 3f
       1.0748291 0.9801643 1.104206 0.97416794
000080 42 92 8d 3f e5 63 8b 3f e7 5c 75 3f e7 71 86 3f
       1.1060259 1.088986 0.9584488 1.050351
000090 72 68 88 3f f4 ec 75 3f 70 a8 82 3f bd 68 81 3f
       1.0656874 0.96064687 1.0207653 1.0110089
0000a0 0a 9b 84 3f 6a c2 85 3f 24 7a 7b 3f c0 97 81 3f
       1.0359814 1.0449955 0.98233247 1.0124435
0000b0 13 3f 7b 3f 45 56 79 3f 8f c9 87 3f 81 54 68 3f
       0.9814312 0.9739726 1.0608386 0.9075394
0000c0 e8 0b 8b 3f 85 4b 62 3f 16 fd 4b 3f 74 ca 87 3f
       1.0863008 0.88396484 0.79683053 1.0608659
0000d0 82 a3 71 3f 2f e9 8b 3f ef 39 79 3f 8e 2c 8d 3f
       0.9439012 1.0930537 0.97354025 1.1029222
0000e0 70 64 90 3f 32 3f 80 3f 54 82 86 3f 5e d3 68 3f
       1.1280651 1.0019286 1.0508523 0.9094752
0000f0 93 24 81 3f ca a8 87 3f eb e1 7f 3f 5f c4 87 3f
       1.0089287 1.0598385 0.999541 1.0606803

bn2.bias f4 [64]
000000 ac f0 15 3d 8e 79 b9 bd 1e c5 f8 bd c8 14 cb bd
       0.036606476 -0.09056388 -0.12146972 -0.09916073
000010 8d cd 65 be 9e 72 d1 bd f1 b3 8a bb e8 6f 97 bd
       -0.22441693 -0.102269396 -0.0042328765 -0.07394391
000020 59 51 8c bc 70 39 4c be b0 23 db bd 49 7b 85 bd
       -0.017128633 -0.19943786 -0.10700166 -0.065176554
000030 23 2f 01 be 77 9c 4b be 8c 93 4b be dc 40 1f be
       -0.12615637 -0.19883905 -0.19880503 -0.15552086
000040 cb 28 4e bd 3a ea 0e be 9f 46 36 be 31 e2 75 be
       -0.050331872 -0.13956538 -0.17800377 -0.24012066
000050 2f 3a 1c be 55 8d c4 bb 66 7b 2c be b4 fc 8b be
       -0.1525657 -0.0059982934 -0.16843948 -0.27341235
000060 48 df 25 be 5a ba 61 be 33 4b 9d be f7 2c 29 be
       -0.16198456 -0.22043744 -0.30721435 -0.16521059
000070 71 d6 50 be fa 90 85 be 59 bd 48 be a8 77 a0 bd
       -0.20394303 -0.2608717 -0.1960348 -0.078353226
000080 70 41 d5 bd 0a 13 0e be ac f9 21 be d6 0b 1c be
       -0.10412872 -0.1387445 -0.15817899 -0.1523889
000090 63 24 0b be 8e cd 68 bc da 3f 33 be d4 f3 87 be
       -0.13588099 -0.014209164 -0.17504826 -0.26553214
0000a0 89 bc 26 bd 2f dc f9 bd 98 dd 14 bd 40 2a 30 bd
       -0.040707145 -0.122002 -0.03634414 -0.043009043
0000b0 93 62 2c be bb be 58 be cb 65 9b bd 3e 2e 11 be
       -0.16834478 -0.21166508 -0.07587775 -0.14177796
0000c0 9e 73 b0 bd db 5e 3c be 5b 4c be bd 79 f6 00 be
       -0.08615802 -0.1839556 -0.092919074 -0.12594022
0000d0 ec f7 b0 bd 6c cc f5 bc 1e 24 e2 bc 49 5b 21 be
       -0.08641037 -0.030004703 -0.027605113 -0.15757479
0000e0 09 e2 01 be 31 82 04 be c8 ef 15 be f3 8d 78 be
       -0.12683882 -0.12940289 -0.1464225 -0.242729
0000f0 01 4b a3 bc c5 b0 02 be 59 08 31 be bb 86 18 bd
       -0.019933226 -0.12762745 -0.1728834 -0.037237864

bn2.running_mean f4 [64]
000000 ba d8 3a bf 86 bf 79 be 82 03 93 3c 68 49 bd bd
       -0.7298695 -0.24389467 0.017946009 -0.09242517
000010 08 c9 f4 be da 00 57 bf c9 93 e1 be 47 db 2e bc
       -0.47809625 -0.83985674 -0.44058064 -0.010672397
000020 b3 39 39 bf 74 6f 6b be 2f cc 3d 3d 03 64 3a bf
       -0.7235367 -0.22991735 0.046337303 -0.72808856
000030 d7 1c 23 bf 30 b5 57 bd ac 43 41 bf 2f 89 c6 be
       -0.6371588 -0.05266303 -0.75493884 -0.38776538
000040 08 38 36 bf 50 26 80 bf 5b 4c 2a 3e 16 72 1a bf
       -0.71179247 -1.0011692 0.1663069 -0.6033033
000050 55 47 2c 3d ad 97 29 be aa 70 30 3f 6c 50 09 bf
       0.042060215 -0.16561766 0.6892191 -0.5363834
000060 db 5d 3c bf e7 de b2 be f0 39 f4 be 3c 2c 08 be
       -0.7358071 -0.34935686 -0.47700453 -0.13298124
000070 dc ac 00 bf 2c 82 6a 3f 78 db 1a bf fd 0d 58 bf
       -0.5026376 0.91604877 -0.6049113 -0.84396344
000080 08 03 20 bf e7 9d 6e bf 2f 2b 6f bd f7 d6 17 bf
       -0.62504625 -0.9320969 -0.058390792 -0.59312385
000090 61 c9 3a bf 5f 1e f5 be 9b 04 12 bf 42 54 8e be
       -0.7296353 -0.47874734 -0.5703828 -0.2779866
0000a0 a9 db 6e bf 2e ba 48 bf 4a 22 22 bf b3 45 2f bf
       -0.93303925 -0.7840909 -0.6333357 -0.6846573
0000b0 68 42 b2 3d 34 39 12 bd a6 ea 56 bf 39 b1 cb ba
       0.08704072 -0.035699084 -0.83951795 -0.0015540487
0000c0 08 b9 41 bf 34 07 0e 3e 90 7c fc bd 52 f2 5d bf
       -0.7567296 0.13869935 -0.12328446 -0.86697876
0000d0 22 5f 8c be 3b 0a 59 bf 3c 0e 5e bf 1b b1 4b bf
       -0.2741633 -0.84781235 -0.8674047 -0.79567116
0000e0 d1 d9 12 bf ef be 2e bf 10 84 54 bf ed 70 f8 3d
       -0.5736361 -0.6826009 -0.8301401 0.12130914
0000f0 24 09 2f bf 9e 45 47 bf 24 08 12 bf 1c c2 e7 be
       -0.6837332 -0.778406 -0.5704367 -0.4526528

bn2.running_var f4 [64]
000000 c1 e8 49 40 9f 2f 83 3f cc 6c 8e 3f 3a bd 25 3f
       3.1548312 1.0248908 1.1126952 0.6474186
000010 32 52 22 3f d7 6d 26 40 d3 f3 be 3f c7 ea 49 3f
       0.6340667 2.600454 1.4918159 0.78873867
000020 85 41 7b 3f 90 45 9b 3f 6d 7b cf 3f 7a 6a 17 40
       0.9814685 1.2130604 1.6209542 2.3658738
000030 bf 35 9d 3f 70 80 5f 3f 31 b6 d5 3f 23 13 77 3f
       1.2282027 0.87305355 1.6696225 0.96513575
000040 65 f2 cb 3f 66 3f 45 40 c2 29 c2 3f 23 25 f4 3f
       1.5933348 3.0819945 1.5168993 1.9073833
000050 7e e7 f5 3f a3 fd f3 3f d9 64 80 3f 3e e3 17 40
       1.9211271 1.9061779 1.0030776 2.3732448
000060 60 e8 e9 3f d2 40 94 3f f1 87 b3 3f 22 67 c8 3f
       1.827404 1.1582282 1.4025861 1.5656474
000070 f4 83 a0 3f ad 98 e7 3f fe fb bc 3f 8a 22 1f 40
       1.2540269 1.8093468 1.4764402 2.486483
000080 55 84 ee 3f 3b f8 03 40 3a 67 3f 3f 36 fc 9b 3f
       1.8634135 2.0620258 0.74766886 1.2186344
000090 61 c1 00 40 ed cd f8 3f aa 7f 30 40 8b fa c7 3f
       2.011803 1.9437844 2.757792 1.5623335
0000a0 ef bc 48 40 8d 11 16 40 c0 15 cf 3f 26 4f 62 3f
       3.1365316 2.3448212 1.6178513 0.8840202
0000b0 85 84 88 3f 4e 2e 84 3f 96 ee 3c 40 a1 66 94 3f
       1.0665442 1.0326631 2.9520621 1.159382
0000c0 4a a7 b1 3f 8d 2a 90 3f 8a 4d 99 3f c8 66 ec 3f
       1.3879178 1.1262985 1.1976788 1.8468866
0000d0 b2 89 0f 40 1f 7a 1e 40 d9 ac 15 40 32 2c 9e 3f
       2.2427793 2.4762037 2.3386748 1.2357237
0000e0 ec eb 9a 3f 2f 45 97 3f 00 d4 f8 3f 3d 7e f5 3f
       1.2103248 1.1817988 1.9439697 1.917915
0000f0 8b 07 a7 3f 00 cd f1 3f f8 75 ad 3f 45 71 47 3f
       1.3049177 1.8890686 1.3551626 0.7790721

conv3.weight f4 [128, 64, 3, 3]
000000 42 a8 5e bd 02 3c c3 bc 6e c2 77 bd 2c 27 69 bd
       -0.054359682 -0.023832325 -0.060488157 -0.056922123
000010 75 2b 2a bd 4f b1 a1 bd a9 f0 ac bd ca 98 21 bd
       -0.04154535 -0.07895147 -0.0844434 -0.03945235
000020 87 d8 d1 bd b7 f9 89 3d ff dc 2d 3c 02 7d 46 3d
       -0.102463774 0.067370825 0.010611772 0.04845906
000030 52 fc 07 3d 90 84 cb 3c 9b a4 1b 3d 89 5b 89 3d
       0.033199616 0.024843484 0.037998777 0.06706912
000040 77 bb f0 3c b3 1e 97 3d c3 4b 2c 3d 16 cb 3a 3d
       0.029386265 0.07378902 0.04206444 0.045603834
000050 31 7d 4a 3d a9 fa 1a 3d 2d 75 d3 3c e9 9e 64 3d
       0.049435798 0.037836704 0.02581271 0.05581561
000060 7b f2 3a 3d af 43 84 3d 29 34 59 3d d9 c2 bc bc
       0.045641404 0.06458222 0.05302826 -0.02304213
000070 3d 22 2c bd 86 d3 af bd 03 29 1c 3c ff b9 f8 bb
       -0.04202484 -0.08585267 0.009531262 -0.007590532
000080 17 ec 3f bd 4a f9 2e 39 24 3e d9 bb eb f6 00 bd
       -0.046856012 0.000166868 -0.006629722 -0.03148548
000090 78 05 0b bd ee 0f f3 bc 94 16 3f bd c5 bd d2 bc
       -0.033940762 -0.029670682 -0.04665239 -0.025725255
0000a0 d6 8a 08 bd c7 ec e0 bc df 59 47 3c 62 82 0f bc
       -0.03333553 -0.027456654 0.012167423 -0.008759113
0000b0 02 31 50 bc 70 84 b6 bd 8b 9a 77 bd 7a 25 e1 bd
       -0.012706997 -0.08911979 -0.060450118 -0.10993476
0000c0 dc df 58 bd d1 d1 65 bd d9 08 ae bd 3f 7b e9 bd
       -0.052947864 -0.0561083 -0.08497781 -0.114004605
0000d0 15 6a a2 bd cf e7 cc bd 31 f5 23 3d 12 5e bb 3c
       -0.0793039 -0.100051515 0.040028755 0.022872005
0000e0 6e 27 cc 3c ad 63 9f 3c 18 70 01 3d 7b 26 4d 3c
       0.024921145 0.019456709 0.03160104 0.0125213815
0000f0 27 72 16 3d 07 ff 65 3b 77 0b bd 3c a6 eb 03 3d
       0.036729958 0.0035094635 0.023076756 0.032207154
000100 3b f6 26 3d 1c 8a 5f 3d e4 ea 23 3d d9 dc 42 3d
       0.040762167 0.05457507 0.04001893 0.047573898
000110 63 06 82 3d 36 92 bb 3c ee c4 1e 3d cf c2 4a 3d
       0.063488744 0.022896867 0.038762026 0.04950219
000120 82 68 c9 bc 6d db 9c bc 22 f3 39 bc 93 05 11 bd
       -0.024585966 -0.0191476 -0.011349471 -0.035405707
000130 9e aa ef bb ab cb 88 bc 9c 13 83 bd cc de 81 bc
       -0.0073140403 -0.016698679 -0.064002246 -0.015853308
000140 a4 ed 41 bd f0 dc b1 3d 17 43 94 3d aa 7f be 3d
       -0.047345772 0.086847186 0.07239359 0.09301694
000150 06 f1 8b 3b eb fb 48 3d 2b 63 11 3d 53 c4 9d 3d
       0.0042706756 0.049068373 0.035494965 0.077034615
000160 9e 53 70 3c ea a2 9d 3c 63 bf c1 3c 83 4f 05 3d
       0.014668373 0.019242723 0.02365083 0.03254653
000170 44 7f 0a 3d 5f bc ce bb b2 08 db 3c a1 e1 ac 3c
       0.033812776 -0.0063090767 0.026737545 0.021103682
000180 6d 57 34 3c 69 58 81 bc e2 c0 04 3d b4 75 47 3d
       0.011007172 -0.015789228 0.03241051 0.048696235
000190 c2 fa af 3c 76 f4 0e 3d e6 9d a0 3c 58 7c 80 bc
       0.021481875 0.034901105 0.019606542 -0.015684292
0001a0 bd 92 fb 3b 29 96 49 bb 35 d9 bc bc 8b ea f5 3c
       0.0076774047 -0.0030759668 -0.023052791 0.030019065
0001b0 2a 45 72 3d 9d 7c a8 3c 99 25 32 3d 1d 8d 49 3c
       0.05914799 0.020567233 0.043492887 0.01230171
0001c0 67 b4 56 bb 5e 65 15 3d 31 90 4a bb 8a 9a 05 bc
       -0.0032761337 0.036473624 -0.0030908699 -0.008154521
0001d0 0b 74 0c 3d 1d 77 03 3d 1a 7e c0 3c 0e 8c c2 3c
       0.034290355 0.032096017 0.02349763 0.023748424
0001e0 15 3c 70 3c 74 4b 94 3c c3 13 a6 bc ce a0 d8 bb
       0.014662762 0.018102385 -0.020273095 -0.0066109663
0001f0 21 de 85 3c 34 5f 87 bc 49 85 86 bc 43 02 5a bc
       0.01634127 -0.016524889 -0.016420977 -0.013306203
000200 10 33 11 bd 8b 02 c9 bc f1 74 8e bb 31 98 44 bd
       -0.035449088 -0.024537345 -0.0043474366 -0.047996704
000210 11 a1 88 bd 7b 80 1c bd b4 4b 17 bd d6 06 f1 3d
       -0.06671346 -0.038208466 -0.03693743 0.11768882
000220 94 a5 4a 3d 44 26 81 3d bc 03 80 3d af 76 63 3d
       0.049474314 0.06306127 0.06250712 0.055533107
000230 51 0b a1 3c c8 ef c3 3d f5 ea 53 3d 5a 6d c6 3c
       0.019658716 0.09567219 0.051737744 0.024222065
000240 f1 76 03 3e 87 dd b0 3d 5d 31 17 3e 6d 5a bf 3d
       0.12838341 0.08636003 0.14764924 0.09343419
000250 b4 ef 98 3d 0c ab db 3d 77 05 d2 3d 94 22 bd 3d
       0.07467595 0.10725984 0.102549486 0.09235111
000260 4d 9e c6 3d 58 df 06 bd 0a 36 bb bc 7e 91 82 bd
       0.09698162 -0.03292784 -0.022852916 -0.06375407
000270 9e 21 33 3c 04 2b c3 bc 85 17 dd bc ff fb cb 3c
       0.010933308 -0.023824222 -0.026988754 0.024900435
000280 09 3f cc 3c d5 d3 26 bc 07 0f 36 bc b4 85 3f 3b
       0.024932401 -0.010182341 -0.011111981 0.002922398
000290 9c e4 42 b8 20 5b 13 bc 5c 51 2d bd d1 26 13 bd
       -4.6466113e-05 -0.008993894 -0.04231392 -0.03592569
0002a0 ea 5a 72 bb e5 2f 23 3b ff ab 32 bd 7a 4e 00 bb
       -0.0036980459 0.0024900374 -0.04362106 -0.0019578026
0002b0 79 4d 0b bd 5d 47 f7 bc 42 ce 05 bd 65 f9 d6 3c
       -0.03400943 -0.030185396 -0.032667406 0.026241967
0002c0 8a eb 75 3c f0 45 58 bc e5 1a a8 bc 3b c5 e1 3c
       0.01500977 -0.013200268 -0.020520637 0.027559867
0002d0 29 c8 dd bc 60 18 3b bd ae a7 44 3c 69 18 45 bc
       -0.027072983 -0.045677543 0.012002869 -0.012029746
0002e0 31 5e ba bc ce f0 4d 3c 8b 12 50 bc 59 ca 00 bd
       -0.022749992 0.012569619 -0.0126997335 -0.031442974
0002f0 9d 85 f5 bc 3b 3e 66 bd 68 14 ab bc 43 b0 4d bd
       -0.029970938 -0.05621169 -0.020883754 -0.050216924
000300 8a 35 25 bd d3 8a f5 bc 01 92 01 bd 5c 47 2a bd
       -0.040334262 -0.029973423 -0.03163338 -0.04157196
000310 57 93 9f bc 6d 39 71 bc c2 4a 7f bc c1 1c 53 bd
       -0.019479437 -0.014723164 -0.0155817885 -0.051541094
000320 7e 7b 16 bd 53 8d 2d bc ed 37 e7 3b 82 07 a9 bc
       -0.036738865 -0.010592776 0.0070562274 -0.020633463
000330 c1 26 8b bc 7a e1 47 bd 22 1b c3 bc 72 83 d2 bd
       -0.016986253 -0.048799016 -0.023816649 -0.102789775
000340 32 fb 51 bd 71 f4 9b bd ac c9 b2 bd e0 52 e4 bc
       -0.05126495 -0.07614983 -0.08729872 -0.02787155
000350 eb 33 7b bd 59 0e fb bd 90 44 64 bd 93 ed af bd
       -0.06132881 -0.12258596 -0.05572945 -0.085902356
000360 18 60 99 bd d1 b1 4e bd b2 71 be bd 38 7e c5 bd
       -0.074890316 -0.050462548 -0.092990294 -0.09643215
000370 c1 0e 3c bd 82 30 c4 bd 25 3d c6 bd 49 c3 a3 bc
       -0.045912508 -0.09579565 -0.09679631 -0.01999058
000380 35 12 c3 bd aa e0 d7 bc 23 71 9e 3b 3a 59 59 bb
       -0.09524957 -0.026352245 0.0048352643 -0.0033164755
000390 c0 41 9a ba dd d6 c0 3c 10 fc 5a ba ac 1b 1f 3d
       -0.0011768863 0.023539955 -0.00083536 0.03884475
0003a0 a4 cc a8 3c a3 98 f8 3c 58 55 53 bd 81 67 3e bd
       0.020605393 0.03034622 -0.051595062 -0.046485428
0003b0 fd ef fd bb 33 23 e7 b9 e6 44 b3 bb 1a e7 e2 bc
       -0.007749556 -0.0004408598 -0.00547086 -0.027698088
0003c0 48 58 09 bd 5c ec 08 bd e2 3f 34 bd a2 00 0b 3d
       -0.033531457 -0.033428535 -0.044006236 0.03393615
0003d0 1c 03 40 3c 74 1a a6 3c 67 3e 94 3b 30 a6 22 bb
       0.011719491 0.020276286 0.0045240405 -0.0024818294
0003e0 63 31 a8 3c b5 d3 a3 3c 2c 90 5e 3c ac dd 22 3d
       0.020531362 0.01999841 0.013584178 0.039762184
0003f0 79 fa 5d 3d 09 c0 37 3d d8 ab 0f 3d 6c c4 24 3d
       0.054193947 0.044860873 0.035075992 0.040226385

conv3.bias f4 [128]
000000 14 fe 50 3d 05 b5 5e bb 3b 31 6b bd 22 91 42 3b
       0.051023558 -0.0033982408 -0.057419997 0.0029688557
000010 fc e9 02 bd 7c 58 1b bc 0d 3a ce 3c 6b 3b 22 bd
       -0.031961426 -0.009481546 0.025174165 -0.039607447
000020 cf 9b 2f bd 70 ee 87 3c 07 b1 58 3d 4f cb 92 bd
       -0.0428732 0.016593188 0.0529032 -0.07167684
000030 b6 c4 2e bd fa 4b cf 3a e4 71 bb 3c 27 20 7f 3d
       -0.042668067 0.001581549 0.022881456 0.062286522
000040 6f 58 b7 39 aa f0 17 bd 3f e2 3f 3d 25 83 35 bd
       0.00034970368 -0.03709475 0.046846624 -0.044314522
000050 2b f3 06 3c 85 16 e6 bb c0 85 26 bc b0 75 48 bd
       0.008236687 -0.0070217275 -0.010163724 -0.04894036
000060 20 1c e4 3b 17 1a 6b bd 4c 95 8a bc 16 ac df 3a
       0.0069613606 -0.057397928 -0.016916893 0.0017064835
000070 17 79 77 39 0c 5f c5 bb 0b 0a 05 3c 21 b9 66 3c
       0.00023600865 -0.0060232934 0.00812007 0.014082224
000080 f0 b5 a6 bb a7 8a 2c bd c7 54 dc bc 12 16 a1 3c
       -0.0050876066 -0.042124417 -0.026895894 0.019663844
000090 15 d2 97 3c 57 2d 9a 3c 76 19 3a 3c 4f 2e 1f 3d
       0.018532792 0.018820448 0.011358609 0.038862523
0000a0 49 a1 13 3d 26 58 f8 bc c3 95 3a 3d 82 ca d2 bd
       0.036042485 -0.03031547 0.04555298 -0.102925315
0000b0 a7 f2 5d 3c dc fe f3 3c 3d a4 81 3d 0c a9 5a 3c
       0.013546622 0.029784612 0.06330154 0.013345968
0000c0 72 c7 42 3d ce fd 1d 3d 95 1c 76 3d c4 05 6e bd
       0.047553487 0.038572125 0.06008585 -0.058110967
0000d0 ec 5c 49 bd ae 10 d6 bb c1 a7 03 bd b7 b1 37 3c
       -0.049160883 -0.00653275 -0.032142404 0.011211804
0000e0 09 4a 20 3a 92 91 9e 3c 9d de 3b 3b ae fb ae 3c
       0.0006114548 0.019356523 0.0028666623 0.021360245
0000f0 f0 dd 29 3c f2 29 9b 3c 9c 67 29 bd e0 91 2a bd
       0.010367855 0.0189409 -0.041358575 -0.041643023
000100 74 80 50 3d 25 ac d5 3c 05 53 a8 bc 1a bc 27 3d
       0.050903752 0.026083061 -0.0205474 0.040950872
000110 9c 25 ac 3c 6c 70 be bb 31 cf 95 3c 37 79 e8 3b
       0.021014027 -0.0058117416 0.018287273 0.007094528
000120 c6 04 83 bd 7f 18 a8 3a 5f eb 49 3b fe 01 8c 3d
       -0.06397395 0.0012824683 0.0030810458 0.068363175
000130 d9 49 26 3d 1e 18 14 39 72 74 bf bc 96 a8 46 bd
       0.04059777 0.00014123364 -0.023370955 -0.04850062
000140 41 18 b6 3b 02 03 9f 3d 34 4f bb 3b bc a5 e0 3c
       0.0055570905 0.077642456 0.005716229 0.027422778
000150 23 45 06 bc ac 91 32 3d 50 f8 4c bd 31 a3 58 3d
       -0.008195194 0.043595955 -0.050041497 0.052890006
000160 a7 51 0f bd 00 a8 0b 3d 2c 1d 88 bc 1d 48 36 3a
       -0.03498998 0.034095764 -0.016615473 0.0006953495
000170 50 cc 81 3b 6b 88 80 bd a1 77 96 3d 44 eb d7 bc
       0.0039611235 -0.0627602 0.07347036 -0.0263573
000180 3d 7f 65 bd 45 38 b5 39 b9 be 8d bd 6d 82 32 bd
       -0.056029547 0.00034564934 -0.06921143 -0.043581415
000190 99 f3 93 bd 7d 97 05 3d 31 0c 87 bb 74 0c 19 3d
       -0.07224197 0.032615174 -0.0041213264 0.03736539
0001a0 cd 6b b2 3d 11 5c 27 bc d7 ae a5 3d d7 b7 51 3c
       0.087119676 -0.010214821 0.08089989 0.0128001785
0001b0 bd 3a e5 3c dd ad 16 bd 0c 14 84 bd 94 32 2b 3d
       0.02798211 -0.036786903 -0.06449136 0.041796282
0001c0 fe 73 e7 3c 50 16 2a bc 15 a9 48 3c 9a 4d b1 b9
       0.028253552 -0.010381296 0.012247344 -0.00033817888
0001d0 2c 82 40 bd 9a 19 85 3c 46 09 aa 3d 07 5e e7 3c
       -0.04699914 0.01624756 0.0830255 0.028243078
0001e0 b4 e3 ed bb 8e 18 7a 3c a9 7d 42 3c 15 12 4b bc
       -0.0072598103 0.015264643 0.01187078 -0.012394448
0001f0 fe 95 bc bc b3 6d 11 3d af 42 77 bb 38 d8 54 3d
       -0.02302074 0.035505008 -0.0037728956 0.051964015

bn3.weight f4 [128]
000000 c6 ec d7 3f 44 2f c6 3f 52 19 e0 3f 78 93 e1 3f
       1.6869133 1.5483174 1.7507727 1.7623129
000010 16 2d e2 3f 6c c4 be 3f 59 53 dd 3f 32 d1 d2 3f
       1.7670009 1.4903693 1.7291061 1.6470091
000020 66 5b c1 3f cc 89 df 3f 6e a3 e5 3f a4 49 ed 3f
       1.5106018 1.7463927 1.79405 1.8538098
000030 53 ed db 3f e5 5b c3 3f 2d 3d c1 3f 4c 79 cf 3f
       1.7181801 1.5262419 1.5096794 1.6208892
000040 c7 d5 d9 3f 48 67 e2 3f 3e 37 e0 3f 6d d5 cc 3f
       1.7018365 1.7687769 1.7516859 1.6002632
000050 d3 3d d5 3f 13 33 dd 3f 45 d0 d5 3f 70 50 df 3f
       1.6659492 1.7281212 1.6704184 1.7446423
000060 60 e4 e2 3f 57 05 ce 3f 5e 34 ea 3f 77 14 d1 3f
       1.7725945 1.609538 1.8297231 1.633437
000070 6e d1 e5 3f 63 18 ef 3f 04 3d d9 3f 46 be c6 3f
       1.7954538 1.8679317 1.6971745 1.5526817
000080 12 24 da 3f 5b 36 de 3f 18 b5 e1 3f 68 4b da 3f
       1.7042258 1.7360338 1.763339 1.7054262
000090 ec eb dd 3f 0c bf d7 3f 1c 9a de 3f 10 77 e1 3f
       1.7337623 1.6855178 1.739078 1.761446
0000a0 15 ac e3 3f fe 32 e4 3f a9 2b e3 3f 5b 29 dc 3f
       1.778689 1.7828062 1.7747699 1.7200121
0000b0 20 6f de 3f ad 6e d3 3f 91 f4 e2 3f 4d 46 ef 3f
       1.7377663 1.651815 1.7730886 1.8693329
0000c0 cc 29 de 3f e0 f9 dd 3f 64 1e da 3f 96 bb d9 3f
       1.7356505 1.7341881 1.7040524 1.7010372
0000d0 ba 93 cd 3f db dd db 3f 03 6a e2 3f 01 65 c4 3f
       1.6060708 1.717708 1.7688602 1.5343324
0000e0 74 5f ec 3f 4b 83 e3 3f c7 30 df 3f 2d 46 c6 3f
       1.846663 1.7774442 1.7436761 1.5490166
0000f0 80 ff d9 3f af d0 ba 3f 84 b5 e2 3f fe 02 de 3f
       1.7031097 1.4594935 1.7711644 1.7344663
000100 c9 75 ef 3f 33 ac df 3f 88 49 dc 3f be bf e2 3f
       1.870782 1.7474426 1.720994 1.7714765
000110 43 08 d0 3f 5c 3d ca 3f 22 d8 de 3f 98 1e e5 3f
       1.6252521 1.5799975 1.7409708 1.7899961
000120 68 c7 de 3f 26 48 d8 3f 45 4b df 3f 7f 2c e5 3f
       1.7404604 1.6897018 1.7444845 1.7904204
000130 1c a2 e5 3f 4f 0b e6 3f aa 76 e6 3f 18 05 dd 3f
       1.7940097 1.7972201 1.8004963 1.726718
000140 8b 26 dd 3f 6a f9 d8 3f 66 bc e5 3f ad 0d e2 3f
       1.7277387 1.6951115 1.794812 1.7660424
000150 5f 42 d6 3f bc f5 dc 3f b9 c1 bc 3f 9b fe dc 3f
       1.6739005 1.7262492 1.474662 1.72652
000160 29 99 bd 3f 83 25 cc 3f f1 96 ec 3f 56 90 ca 3f
       1.4812366 1.5948948 1.8483564 1.5825298
000170 66 c7 d3 3f 63 c6 e5 3f 13 ff db 3f 9c 01 e0 3f
       1.6545227 1.7951168 1.7187217 1.7500491
000180 b2 e1 da 3f 04 29 bc 3f ee ac e6 3f 87 8d c9 3f
       1.7100127 1.4700017 1.8021524 1.5746316
000190 36 ed e0 3f 97 3b e7 3f c5 86 de 3f 98 eb e1 3f
       1.7572391 1.806506 1.7384878 1.7650023
0001a0 d2 e3 ec 3f 2a eb d7 3f 7e 3f e6 3f 22 89 d6 3f
       1.8507025 1.6868641 1.7988126 1.67606
0001b0 c5 c5 de 3f 8f 94 be 3f 52 e6 ea 3f b8 f9 d4 3f
       1.7404104 1.4889086 1.8351538 1.6638708
0001c0 c6 b6 e3 3f c9 b1 e1 3f 50 37 da 3f f9 e6 c9 3f
       1.7790153 1.7632381 1.704813 1.5773612
0001d0 e5 41 c9 3f 05 55 ed 3f f6 92 c2 3f 90 42 de 3f
       1.5723234 1.8541571 1.5201099 1.7364063
0001e0 5f 9f de 3f fb ca be 3f a9 e9 e5 3f 44 54 d9 3f
       1.7392386 1.4905695 1.7961932 1.6978841
0001f0 c3 f1 dd 3f cb c8 e5 3f 06 6a e4 3f ba ad c7 3f
       1.7339405 1.7951902 1.7844856 1.5599892

bn3.bias f4 [128]
000000 7d f5 95 3d 2a 34 5c 3e d7 cd 3c 3e d4 4d 7b 3e
       0.07322214 0.21504274 0.18437897 0.24541408
000010 a8 ec 1c 3e 1f 29 89 3e 22 eb 10 3e 6f 61 8a 3e
       0.15324652 0.26789185 0.14152196 0.2702746
000020 13 a1 61 3e c2 61 85 3e 04 65 d5 3d 18 fc 79 3e
       0.22034101 0.26051146 0.10419658 0.24412572
000030 fc 26 5d 3e 0d f0 65 3e 79 5b 4f 3e 15 4b 89 3e
       0.21596903 0.22454853 0.20249738 0.26815096
000040 83 19 19 3e e3 be 5e 3e f4 6b 09 3e b4 42 73 3e
       0.14951138 0.21752505 0.13420087 0.23755914
000050 66 a9 5a 3e a1 d8 b9 3d e3 fe 3b 3e 32 64 3e 3e
       0.21353683 0.09074522 0.1835895 0.18592909
000060 e6 13 85 3d 4e d8 50 3e 91 e2 1a 3e d5 c8 7c 3d
       0.06497936 0.20395014 0.1512549 0.061714966
000070 de 29 73 3e 08 e2 24 3e 14 c3 97 3d 41 c7 85 3e
       0.2374644 0.16101849 0.07410255 0.2612858
000080 f1 62 6a 3e 64 62 b0 3d 9d f9 2b 3e cf 27 80 3e
       0.22889306 0.086125165 0.16794439 0.25030372
000090 7d e6 f4 3d 24 c3 ef 3c 0e 99 8b 3e 80 a7 55 3e
       0.11958025 0.029267855 0.2726521 0.20864677
0000a0 ec fa 1c 3e dd 6f ee 3d e9 58 7e 3d 41 62 2f 3e
       0.15330094 0.1164243 0.06209651 0.17127325
0000b0 e1 24 11 3e db 67 73 3e 94 56 49 3e 28 da bc 3c
       0.14174224 0.23770086 0.19661933 0.023053244
0000c0 e6 d5 8b 3d d1 fc 87 3e bd 79 ba 3d 8c ed 20 3e
       0.06827907 0.2656007 0.09105251 0.15715617
0000d0 45 99 88 3e 6f 9f ac 3d 34 07 ed 3d 45 54 8c 3e
       0.26679435 0.08428847 0.115736395 0.27408043
0000e0 f4 71 0d 3e b3 e2 80 3e a0 f6 05 3e 7d 7a 41 3e
       0.13813001 0.25172958 0.13082361 0.18894382
0000f0 4e e6 7b 3e c1 72 39 3e dc c5 cb 3d 3c b3 fc 3d
       0.24599573 0.18110181 0.09949848 0.12338874
000100 91 26 02 3e d6 b6 2a bb 47 fa 80 3e 1a 80 64 3d
       0.12710024 -0.002604892 0.25190946 0.05578623
000110 49 05 77 3e df 98 78 3e b0 4f 57 3e 84 01 2d 3e
       0.2412311 0.24277066 0.21026492 0.1689511
000120 7f 08 a1 3e 69 62 2d 3e 06 02 3d 3e 53 c7 7e 3e
       0.31451795 0.16932072 0.18457803 0.24880724
000130 ed c9 82 3e ce a6 79 3d a6 67 06 bd ae af 60 3d
       0.25544682 0.060950093 -0.03281369 0.05485504
000140 7b c1 88 3c c6 58 78 3e 77 98 1a 3e d8 8d 93 3d
       0.016693821 0.24252614 0.15097223 0.07204789
000150 a2 92 64 3e a9 cc 1e 3e 77 ce 84 3e 2b 34 30 3e
       0.22321561 0.15507759 0.2593877 0.172074
000160 ef b6 51 3e 05 29 76 3e 96 f1 12 3e 04 57 88 3e
       0.2047994 0.24039085 0.1434997 0.26628888
000170 3a 9b 1a 3e 36 c9 10 3e 9d ed 4a 3e d7 06 30 3e
       0.15098277 0.14139256 0.19817205 0.17190109
000180 75 29 0f 3d 07 98 78 3e e0 e9 54 3e cb c7 a9 3e
       0.034951646 0.24276744 0.20792341 0.33160242
000190 b3 68 68 3e 77 80 d3 3d b1 da 64 3d 4e fe fa 3c
       0.2269619 0.10327237 0.055872623 0.03063884
0001a0 69 66 04 3d d4 33 32 3e 47 46 4c 3e 74 cb 49 3e
       0.03232423 0.17402583 0.19948684 0.19706517
0001b0 cc 55 f9 3d 96 eb 64 3e d8 bf 71 3e 93 a8 8e 3e
       0.121745676 0.22355494 0.23608339 0.27862987
0001c0 13 31 af 3d 32 d3 0c 3e da 2c 25 3e 48 57 8b 3e
       0.08554282 0.1375244 0.16130391 0.27215028
0001d0 00 4c 61 3e e0 d1 b9 3c 7a cd 9e 3e 4b 64 3c 3e
       0.22001648 0.022683084 0.3101614 0.18397634
0001e0 5d 2e d0 3c 13 23 51 3e f2 ab 93 3d ca 71 73 3d
       0.025412733 0.20423536 0.0721053 0.05943469
0001f0 36 f7 f6 3d f9 5d 79 3e ef ec c2 3d 0c 44 7d 3e
       0.120588705 0.24352254 0.09517848 0.24732989

bn3.running_mean f4 [128]
000000 2b 50 06 be 5d 78 66 bc 5c fc 29 be dd 61 16 be
       -0.13116519 -0.014066783 -0.16600174 -0.1468577
000010 c6 50 09 3e 96 cc d3 bd c9 4a 64 be 41 0e ba bd
       0.13409719 -0.10341756 -0.22294153 -0.0908475
000020 ff 96 e6 bd be 3c 50 3e 71 88 07 3e 79 51 70 be
       -0.11259269 0.20335671 0.13235642 -0.2346858
000030 b1 4a 5c be 81 48 58 be 9c d2 47 be 6d 59 98 3e
       -0.21512868 -0.21121408 -0.19513935 0.29755726
000040 84 64 ba bd 1a 2c 47 3d d2 fa 6e bd b1 69 fd be
       -0.09101203 0.048626043 -0.05834467 -0.494947
000050 9a ab 76 bd b0 8b 63 be 78 4e ad bd 40 6d 8d be
       -0.060222246 -0.22221255 -0.08462232 -0.27622414
000060 fb da c2 be ff 35 38 be cb ca 93 be 74 bd 49 bd
       -0.38057694 -0.17989348 -0.28865656 -0.049252942
000070 d9 45 15 be cd 2b bb be f0 63 5f be f2 7c 6f 3d
       -0.14577426 -0.36556855 -0.21815467 0.058468767
000080 a4 1b 00 3e 6d 30 f7 bd 32 25 a2 be 6a 6a b7 bd
       0.12510544 -0.12069783 -0.31669003 -0.08955844
000090 4c af 1f be d3 fd 41 be c3 20 6f 3c 48 1d 82 be
       -0.15594214 -0.18944483 0.014595213 -0.25412965
0000a0 73 4b bd 3d eb 0f ef be 47 96 28 be 60 e2 e4 bc
       0.092429064 -0.46691832 -0.16463576 -0.027939975
0000b0 b7 4e f8 be 09 0d 3e 3d 87 42 f1 3c b8 c3 2f be
       -0.48497555 0.04639915 0.029450668 -0.17164505
0000c0 e5 1e a9 bd bd 68 70 bd 9e 28 03 3d 24 c7 e8 bd
       -0.08257846 -0.058693636 0.032021157 -0.11366108
0000d0 72 ae 97 be f2 13 ad be f1 14 92 be 68 48 a4 bc
       -0.2962528 -0.3380428 -0.28531602 -0.020054057
0000e0 19 2d 8e be 01 51 e2 3d f2 11 d8 bc b8 e9 1a be
       -0.27768782 0.110506065 -0.026375744 -0.15128219
0000f0 07 48 50 3d 2f 57 49 bd 04 f0 04 be 4f 64 57 be
       0.05084994 -0.04915541 -0.12982184 -0.21034358
000100 62 32 b7 be 8a 88 c2 be b1 fe 14 be 6a fb 83 be
       -0.35780627 -0.37994796 -0.14550282 -0.2577775
000110 82 1a fc bc 9f 4e 89 3c 38 5c df bb 3c f5 3f be
       -0.030774359 0.016761122 -0.0068164133 -0.18745893
000120 26 96 b6 3c f1 e5 9a bc 58 d0 a8 bd 7a 53 66 be
       0.022288393 -0.018908473 -0.082428634 -0.22492781
000130 da 2a 2f 3d e1 49 dc be 52 04 48 be b3 cb b8 be
       0.042765476 -0.43025115 -0.19532898 -0.3609291
000140 6e 88 2c be de a0 a0 ba 3a 94 85 be 40 2f 88 be
       -0.16848919 -0.0012254973 -0.2608965 -0.2659855
000150 01 2e 5e be 65 ad c4 be 9f 6d 0c bd d0 e9 8e bd
       -0.21697237 -0.3841354 -0.03428423 -0.0697819
000160 21 7c 18 bd 7e 21 37 3e 62 81 5d bd 8c 34 e5 bd
       -0.037227754 0.1788387 -0.054078467 -0.11191663
000170 85 1b 93 3d e0 84 06 be f9 21 3f be 2e 1c 9b be
       0.07182983 -0.13136625 -0.18665303 -0.30294937
000180 86 c6 e0 be 13 57 17 3e 1f 3a 2d bd 5c 23 6a 3b
       -0.4390146 0.1477931 -0.042291757 0.0035726642
000190 aa 79 9c be ed 66 8a 3d e7 e2 f3 be de 1c dd bd
       -0.30561572 0.06757913 -0.4763405 -0.107965216
0001a0 02 7e c6 bd 38 1d ec 3b 02 df 6c 3d 58 f4 5b 3d
       -0.09692003 0.0072056316 0.057829864 0.05369982
0001b0 6c a3 88 be e7 42 8f be 7e 57 e3 be ec 78 c6 bd
       -0.2668718 -0.2798073 -0.4440269 -0.09691033
0001c0 3d 11 71 3d 17 b9 f5 be 7f 01 84 be 1e 4b a8 3d
       0.05885433 -0.47992775 -0.2578239 0.082174525
0001d0 bf 57 3f be f2 f5 34 be 11 3e 8b 3d 88 4c 99 bd
       -0.18685816 -0.17671946 0.067989476 -0.074853
0001e0 cc 82 7f be 48 7e 47 be 76 cd 5d be a9 e2 e3 bd
       -0.24952239 -0.19481766 -0.21660408 -0.11127216
0001f0 15 30 17 be 65 3c c8 3d cc ae 73 be 52 d5 8b 3c
       -0.14764436 0.09777144 -0.23797148 0.017069492
